checkpoint.pt (torch, 959970 bytes, 18 tensors)

lstm.weight_ih_l0 f4 [512, 20]
0	0xbfb95b04	-1.4480901
1	0x3da52e87	0.08065515
2	0x3ebfb972	0.3744617
3	0x4052546e	3.2864032
4	0x3fe4f6c0	1.7887802
5	0xbf91635f	-1.1358451
6	0xbf11685e	-0.56799877
7	0xbebdfc05	-0.37106338
8	0xbf7c3f38	-0.98533964
9	0x3ddd225f	0.107975714
10	0x3f5629c6	0.8365749
11	0x3f0483d2	0.5176364
12	0xbf9e79ca	-1.2380917
13	0x3ef6c4b8	0.4819696
14	0xbfb09615	-1.3795801
15	0x3f508207	0.81448406
16	0x3edd1c83	0.43185815
17	0xbf8a8269	-1.0821048
18	0x3fda8382	1.7071383
19	0x3f96649d	1.1749455
20	0xbf81b7ad	-1.0134178
21	0x3e2cfc0f	0.16893028
22	0xbe58d0f1	-0.21173455
23	0x3eeb9b8b	0.46017107
24	0x3d10c841	0.035347227
25	0xbf3c167c	-0.7347181
26	0x3ec3a01b	0.38208088
27	0xbdb9dbbb	-0.090751134
28	0xbea6c10e	-0.32569164
29	0xbf19447f	-0.5987014
30	0x3e9d852b	0.30765662
31	0xbf244d66	-0.641806
32	0x3d9971a0	0.074923754
33	0x3fc41b07	1.5320748
34	0xbe80fb51	-0.2519174
35	0x3e9d2587	0.30692694
36	0xbf939381	-1.152939
37	0xbf7736f3	-0.9656822
38	0x3f558d5e	0.83418834
39	0x3f2f4a59	0.6847282
40	0xbee15519	-0.44010237
41	0x3eba966c	0.36442888
42	0x3eb14089	0.3461955
43	0x3edfae18	0.4368751
44	0x3f0cc327	0.5498528
45	0x3f385f26	0.72020185
46	0x3ea9e670	0.33183622
47	0xbef6cfd9	-0.4820545
48	0xbedb70f6	-0.4285962
49	0xc00a5df8	-2.1619854
50	0x3edcedc9	0.43150166
51	0x3f88be20	1.0683022
52	0xbf4d9e81	-0.8031998
53	0xbf49bfb0	-0.78808117
54	0xbefa6ef0	-0.48912764
55	0xbfa58eb5	-1.2934176
56	0xbea1c192	-0.31592995
57	0x3eb83740	0.35979652
58	0xc060de61	-3.513573
59	0x3ef47666	0.4774658
60	0xbee470dc	-0.44617355
61	0x3ec629f5	0.38703886
62	0x3dd7b372	0.10532273
63	0x3ebb9bd6	0.3664233
64	0xbf168f70	-0.5881262
65	0xbf257d04	-0.64643884
66	0xbe690be3	-0.2275844
67	0x3ed3e649	0.4138663
68	0xbf2c9cb4	-0.6742661
69	0x3d368cb8	0.044567794
70	0xbf8c9dfc	-1.0985713
71	0x3e7804a7	0.24220525
72	0x3e506dd4	0.20354396
73	0xbfdfcd94	-1.7484612
74	0xbea58f2d	-0.32335797
75	0x3f39071c	0.72276473
76	0x3e463c93	0.19359045
77	0xbdd4e345	-0.10394911
78	0x3f2cf7d1	0.6756564
79	0x3f69bdca	0.9130522
80	0x3e083bda	0.13304082
81	0xbf0af1bb	-0.542751
82	0xbf77a36a	-0.96733725
83	0x3fcee3c6	1.6163261
84	0x3f5441c9	0.8291288
85	0xbf2fb477	-0.6863474
86	0xbfa63abe	-1.2986677
87	0xbefa986d	-0.48944417
88	0xbf1360cd	-0.5756958
89	0xbf95ec75	-1.1712786
90	0xbea8b875	-0.3295323
91	0x3f36f3c5	0.7146571
92	0xbe9fc3ad	-0.31203976
93	0xbea5076b	-0.32232222
94	0x3eedaf69	0.4642289
95	0xbfaadee5	-1.3349272
96	0x3f6101a5	0.87893134
97	0x3f316932	0.6930114
98	0x3f7c4f94	0.98558927
99	0x3f41f5c4	0.75765634
100	0xbf0216c7	-0.50816005
101	0x3edbf1f3	0.4295803
102	0x3f469e08	0.77584887
103	0x3e8717bb	0.26385292
104	0xbe69442d	-0.22779913
105	0xbfd781ac	-1.6836448
106	0x4005ef71	2.0927393
107	0x3de94da5	0.11391763
108	0xbf019141	-0.50612265
109	0x3bad8d6f	0.005296401
110	0x4043fbec	3.062251
111	0x3ef7d2a3	0.4840289
112	0x3eb25373	0.34829292
113	0xbe59d989	-0.2127439
114	0xbea96e53	-0.33091983
115	0x3e78b3b5	0.24287303
116	0xbf543ced	-0.82905465
117	0xbf0df782	-0.5545579
118	0xbed49305	-0.41518417
119	0x3f33ffc6	0.70312154
120	0xbf0811c2	-0.53152096
121	0xbf674099	-0.90332943
122	0xbf3c715e	-0.73610485
123	0xbf70579b	-0.93883675
124	0xbf48564d	-0.78256685
125	0x3ee2cc5f	0.44296548
126	0x3d459b6d	0.04824393
127	0x3fab159e	1.3365972
128	0x3f42b2f1	0.7605429
129	0x3ed158a4	0.4088794
130	0x3f13ede9	0.577849
131	0x3eccf13b	0.40027794
132	0xc0470522	-3.1096883
133	0xbf3f7faf	-0.74804205
134	0x3f3ea17f	0.74465173
135	0xbf8df3d6	-1.1090038
136	0x3e2da309	0.16956724
137	0x3e87e633	0.26542816
138	0x3f226f8c	0.6345146
139	0xbfade7c3	-1.3586353
140	0x3e7b093d	0.24515243
141	0x3eb1d073	0.34729347
142	0x3eb516dd	0.35369006
143	0xbfb6a59e	-1.4269292
144	0xbf45d581	-0.77278906
145	0xbeae4484	-0.34036648
146	0x3f8ef626	1.1168869
147	0x3d0a55f5	0.03377338
148	0xbf48cbeb	-0.78436154
149	0xbf6084bd	-0.8770254
150	0x3f68413a	0.9072453
151	0xbfb55edf	-1.4169577
152	0xbee29fdd	-0.4426259
153	0x3e8203d1	0.25393537
154	0xbf0306c9	-0.5118223
155	0xbf9ab4a2	-1.2086375
156	0x3f2f7a25	0.6854575
157	0x3f0f4555	0.5596517
158	0x3f6bc31d	0.92094594
159	0xbdba7a4e	-0.09105359
160	0xbeb15d7f	-0.34641644
161	0xbf756309	-0.9585424
162	0xbf129c93	-0.57270163
163	0xc04277f6	-3.0385718
164	0x3efff0d4	0.49988425
165	0xbe797d96	-0.24364313
166	0x3d82da9b	0.06389352
167	0x3eb050c6	0.34436625
168	0xbe2d1874	-0.1690386
169	0x3eb2b03a	0.34900075
170	0x3f1b5a50	0.6068468
171	0xbfdb17a0	-1.7116585
172	0x3ec2a87c	0.38019168
173	0xc0371e29	-2.8612158
174	0x3efb3795	0.49065843
175	0x3f63359b	0.8875367
176	0xbfd75ab3	-1.6824554
177	0x3e0f38e5	0.13986547
178	0x3ef9c6cf	0.4878449
179	0xbf17ead6	-0.59342706
180	0x3e88a2fb	0.26686844
181	0xbfab14f6	-1.3365772
182	0x3f7f290f	0.99672025
183	0xc0298edd	-2.6493447
184	0x3ebf831d	0.3740472
185	0xbf07c04d	-0.530278
186	0x3d0d8cdb	0.03455816
187	0xbffbb928	-1.966588
188	0x3e9443a2	0.2895785
189	0xbf156f2e	-0.5837277
190	0xbf0174dd	-0.50568944
191	0x3ef04d51	0.46933988
192	0x3eed7ac0	0.46382713
193	0xbdfc8b84	-0.12331298
194	0x3f2f7e08	0.68551683
195	0xbd61f9de	-0.055169933
196	0x3ed59495	0.41714922
197	0xbf9c34f7	-1.2203664
198	0x3fa13981	1.2595674
199	0x3e61aa95	0.22037728
200	0x3eee1034	0.46496737
201	0xbf9d5462	-1.2291377
202	0x3f5df76c	0.8670566
203	0xbf812ab2	-1.0091155
204	0xbe5e2d6f	-0.21697019
205	0xbdb08b76	-0.0862035
206	0xbfaa4aa6	-1.3304031
207	0xc00d6fb0	-2.2099419
208	0x3fe7c778	1.8107748
209	0xbf75ff24	-0.9609244
210	0x3f483ba9	0.78216034
211	0x3f246313	0.64213675
212	0xbfb9bbd4	-1.4510446
213	0xbf0118fa	-0.50428736
214	0x3f72db7f	0.94866174
215	0xbfe1219e	-1.7588384
216	0x3f80061f	1.0001868
217	0x3f4802a1	0.7812901
218	0x3d3e80f2	0.04650969
219	0x3c9c3676	0.019068938
220	0xbf626574	-0.88436055
221	0x3e8e30f7	0.27771732
222	0xbe82264d	-0.25419846
223	0x3feb29f8	1.8372183
224	0x3f19fdb9	0.60152775
225	0xbefa5d3f	-0.48899266
226	0x3e179f58	0.14806879
227	0xbf3667c7	-0.712521
228	0xbf69dd02	-0.91352856
229	0xbef97dce	-0.48728794
230	0xbfc1db68	-1.5145082
231	0x3ea03704	0.31291974
232	0xbf21ea53	-0.63248175
233	0x3e5d5a52	0.21616486
234	0xbef3dedc	-0.47630966
235	0x3f1f6fc1	0.622799
236	0x3fa0c22e	1.2559259
237	0xbe1a1b86	-0.15049562
238	0x3f0254aa	0.5091044
239	0x3ec2a919	0.38019636
240	0x3e2d7e0c	0.16942614
241	0xbe5220c1	-0.20520307
242	0xbf2a51fa	-0.66531336
243	0x3f574625	0.8409141
244	0x3e123c12	0.14280728
245	0x3f860e92	1.0473197
246	0xbf3b72d5	-0.73222095
247	0xbeba9949	-0.36445072
248	0xbeb9d689	-0.3629649
249	0xbf7673c1	-0.96270376
250	0xbe5ad4aa	-0.21370187
251	0xbc57838b	-0.013153921
252	0x3f3bffe0	0.7343731
253	0xbf450085	-0.7695392
254	0x3f06386d	0.5242985
255	0x3f85d464	1.0455441

lstm.weight_hh_l0 f4 [512, 128]
0	0xbe5e4972	-0.21707705
1	0x3e1a0931	0.15042569
2	0xbf379df2	-0.7172538
3	0x3e35e92b	0.17764728
4	0xbf3504d4	-0.7071049
5	0x3c915d63	0.017744726
6	0xbea1bf9f	-0.31591508
7	0xbf09a824	-0.5377219
8	0x3f45e1f4	0.772979
9	0xbf1124a2	-0.5669652
10	0x3ea7c1f7	0.3276517
11	0x3eab2088	0.33423257
12	0xbf6ef3b5	-0.9334062
13	0xbe7a0f4b	-0.24419896
14	0x3f862ee0	1.0483055
15	0x3f8725c6	1.0558403
16	0x3f46a3f0	0.775939
17	0x3e8ba815	0.27276674
18	0x3d8baa14	0.06819549
19	0x3eb0e88f	0.34552428
20	0x3eb1a524	0.34696305
21	0x3fa49353	1.285746
22	0xbf0e6837	-0.5562777
23	0x3ead005a	0.3378933
24	0xbe4dede8	-0.20110285
25	0x3ed933d4	0.42422354
26	0x3e300e04	0.17192847
27	0xbe92fb48	-0.28707337
28	0x3d20459f	0.039128896
29	0x3eec006c	0.46094072
30	0xbf1bd43c	-0.6087072
31	0xbf0922cd	-0.53568727
32	0x3f20be0f	0.62790006
33	0x3eb0dc74	0.34543192
34	0x3f1bbf6a	0.6083895
35	0x3ce1fb34	0.027585603
36	0x3f0129b9	0.5045429
37	0x3e188a3a	0.14896479
38	0xbdbfb188	-0.09360033
39	0x3e9dd059	0.3082302
40	0x3f1313e2	0.57452214
41	0xbedc4cd7	-0.43027374
42	0x3bb517e6	0.0055265306
43	0x3ed9ce37	0.42540142
44	0x3e7a44d4	0.24440318
45	0x3deef874	0.116684824
46	0xbf7a6490	-0.97809696
47	0xbe9ef9d0	-0.31049967
48	0xbea9623d	-0.33082762
49	0x3e0ed8de	0.13949916
50	0x3c092910	0.0083716065
51	0xbe0f447d	-0.1399097
52	0x3e8a2e03	0.2698823
53	0x3ec8f5d5	0.39250055
54	0xbe766365	-0.24061354
55	0x3f0a0db7	0.5392718
56	0x3f125266	0.5715698
57	0xbe980c84	-0.2969705
58	0x3f38222f	0.7192716
59	0xbe4c39c3	-0.1994391
60	0x3d4ae10e	0.049531035
61	0xbe7a9fa8	-0.24474967
62	0x3f46afb8	0.77611876
63	0xbefc1a85	-0.49238983
64	0x3ef9b504	0.48770916
65	0x3e6702bb	0.22559635
66	0x3eafd13e	0.34339327
67	0x3e443ca0	0.19163752
68	0xbe4bca73	-0.19901447
69	0x3d483b12	0.04888446
70	0xbfa6250f	-1.2980059
71	0xbdc44612	-0.09583677
72	0x3f04073c	0.5157354
73	0x3f9277f2	1.1442854
74	0x3ecf3336	0.40468758
75	0xbf662b50	-0.8990984
76	0xbeadfc3c	-0.33981502
77	0xbf812665	-1.0089842
78	0x3e145c12	0.14488247
79	0x3e662b9b	0.22477572
80	0xbedb8716	-0.428765
81	0x3f6fc6f7	0.9366297
82	0x3e91af61	0.28454116
83	0xbed4f9c8	-0.41596818
84	0x3eac9c7d	0.3371314
85	0x3d32fe89	0.043699775
86	0x3ecfb0f6	0.40564698
87	0xbc94dc60	-0.01817149
88	0xbece4e41	-0.40294078
89	0xbd2a31e8	-0.0415515
90	0x3e96baff	0.29439542
91	0xbf386b47	-0.7203869
92	0xbe26b791	-0.16280963
93	0xbf54cfdd	-0.83129674
94	0x3faa14a5	1.328755
95	0xbf0346ed	-0.512801
96	0xbf75864c	-0.95908046
97	0x3f07fcab	0.53119916
98	0xbf5125ed	-0.81698495
99	0x3e395eac	0.1810252
100	0xbf1ddeb5	-0.6166795
101	0x3ecdd0a5	0.40198246
102	0x3eb0dc62	0.3454314
103	0x3d211823	0.03932966
104	0x3bb2beb2	0.0054548616
105	0x3e89c6b4	0.2690941
106	0x3df0e4b9	0.117623754
107	0xbe9ba054	-0.30395758
108	0xbf9c4040	-1.2207108
109	0x3eefa96d	0.4680895
110	0xba397168	-0.0007074089
111	0x3e84970c	0.2589649
112	0xbe98f6fb	-0.2987593
113	0xbe38349e	-0.17988822
114	0xbf96b8b9	-1.1775123
115	0x3f63da1c	0.89004683
116	0x3f1d2600	0.6138611
117	0x3dcbf3b8	0.09958595
118	0xbf11634f	-0.5679216
119	0xbe14f17f	-0.14545248
120	0xbf810e4f	-1.0082492
121	0x3e110328	0.1416136
122	0x3ee78730	0.45220327
123	0x3f7d27c0	0.9888878
124	0xbe90cab9	-0.28279665
125	0x3e9e4f62	0.3091994
126	0x3f389c9b	0.7211396
127	0x3f46000c	0.7734382
128	0xbed8e498	-0.42361903
129	0xbf120969	-0.5704561
130	0x3e9b69ce	0.3035416
131	0x3e5a379b	0.21310274
132	0x3f27355e	0.65315807
133	0xbf068c8a	-0.52558196
134	0x3ec06166	0.3757431
135	0xbf5df0ff	-0.86695856
136	0x3e488cea	0.19585004
137	0x3ebc4d17	0.36777565
138	0x3f576517	0.84138626
139	0xbe1edd6c	-0.15514153
140	0x3f236d20	0.63838387
141	0xbf554e0a	-0.83322203
142	0x3dfce441	0.123482235
143	0xbeeba546	-0.4602453
144	0xbf8d2cbd	-1.1029278
145	0xbfe7c8b4	-1.8108125
146	0xbf896e4d	-1.0736786
147	0x3f2c4db5	0.6730607
148	0xbf780354	-0.9688008
149	0xbf23a758	-0.6392722
150	0xbd9067fd	-0.07051084
151	0x3dfd44ad	0.123666145
152	0x3f77fc58	0.9686942
153	0x3e7fdeef	0.24987386
154	0x3fa8631a	1.3155243
155	0xbf075259	-0.5286003
156	0x3effa3cd	0.49929658
157	0x3e5be387	0.21473514
158	0x3d804e15	0.06264893
159	0xbf5020a3	-0.812998
160	0xbad7086a	-0.0016405706
161	0x3f2ac523	0.66707057
162	0xbf017c2f	-0.50580114
163	0x3e731cc1	0.23741437
164	0xbe35c58e	-0.17751142
165	0x3fd4a08a	1.6611493
166	0xbed696f6	-0.4191205
167	0xbf08a87b	-0.5338208
168	0x3edf6b48	0.43636537
169	0xbe8f577c	-0.27996433
170	0xbe1dd5b4	-0.15413553
171	0xbf63c640	-0.8897438
172	0x3f61d4b5	0.8821519
173	0xbef53052	-0.47888428
174	0x3e29095b	0.16507475
175	0xbeb66696	-0.35625142
176	0x3d9bb951	0.07603706
177	0x3d0ce8ad	0.034401584
178	0xbf8766c7	-1.057824
179	0x3e22643e	0.15858552
180	0x3f24a27f	0.6431045
181	0xbf1b1c5b	-0.6059014
182	0xbc7fd23d	-0.01561409
183	0x3f85997d	1.0437466
184	0xbf02b205	-0.51052886
185	0x3f19f7cf	0.6014375
186	0xbe9c62a2	-0.30544
187	0xbb62d053	-0.0034609034
188	0xbebb7ff4	-0.36621058
189	0x3ee22e2e	0.44175857
190	0xbee81b02	-0.45333105
191	0xbf03832b	-0.5137202
192	0x3e9648e9	0.293525
193	0x3ec6bbca	0.38815147
194	0x3e667978	0.22507274
195	0xbed7e86b	-0.42169508
196	0xbcfcea41	-0.03087342
197	0x3e12047d	0.14259525
198	0xbd48984c	-0.048973367
199	0x3ef48742	0.47759444
200	0x3f3ca658	0.7369132
201	0x3eecdc7c	0.46261966
202	0xbe49033a	-0.19630137
203	0x3f215876	0.63025606
204	0xbdca92e9	-0.09891302
205	0xbe5a5a72	-0.21323565
206	0x3f95ebd6	1.1712596
207	0x3d34aa11	0.0441075
208	0x3ee60961	0.4492903
209	0xbf60f7da	-0.8787819
210	0xbf667c74	-0.9003365
211	0x3f2c1ebd	0.672344
212	0xbdadac61	-0.08480144
213	0x3e966598	0.29374385
214	0x3e6abd07	0.2292367
215	0x3f41268e	0.75449455
216	0x3f9cf54a	1.2262356
217	0xbde88654	-0.11353746
218	0xbf0279b4	-0.50966954
219	0xbd94a71f	-0.07258438
220	0x3ed4b3cd	0.41543427
221	0xbda703a4	-0.08154991
222	0x3fb029c2	1.3762743
223	0x3ee2b92d	0.44281903
224	0x3f065cb9	0.52485234
225	0x3e89490c	0.26813543
226	0xbe93ed6f	-0.28892085
227	0x3ef0bb31	0.47017816
228	0xbf367bc7	-0.7128262
229	0x3f904330	1.1270504
230	0xbd4f3684	-0.0505891
231	0x3d5a53d6	0.05330261
232	0xbec5f6b7	-0.3866479
233	0xbdc6d9e6	-0.097095296
234	0xbe3182b1	-0.17335011
235	0xbec8d9ec	-0.3922876
236	0xbd997d0d	-0.07494555
237	0xbf003770	-0.5008459
238	0x3f906e43	1.1283649
239	0x3e6fce58	0.23418558
240	0x3e4645f2	0.1936262
241	0xbf0fef5e	-0.5622462
242	0xbe8de128	-0.27710843
243	0xbf229458	-0.63507605
244	0x3e7a5152	0.24445084
245	0x3c6a6991	0.014307396
246	0x3f28f9f4	0.660064
247	0x3e6515c2	0.22371581
248	0x3ecd2930	0.40070486
249	0xbeb9a777	-0.36260578
250	0x3e510730	0.20412898
251	0xbe735a2b	-0.23764865
252	0xbdcadd5f	-0.099055044
253	0x3ec24ade	0.37947744
254	0x3f414039	0.7548862
255	0xbf286617	-0.65780777

lstm.bias_ih_l0 f4 [512]
0	0xbe26f6d4	-0.16305095
1	0xbf202244	-0.62552285
2	0xbef82e17	-0.48472664
3	0xbf099cc0	-0.53754807
4	0xbf13803d	-0.5761755
5	0xbd6ebb33	-0.058283996
6	0xbeaf0251	-0.34181455
7	0xbf4204ad	-0.75788385
8	0xbee8fee8	-0.45506978
9	0xbef05fb0	-0.46948004
10	0xbeda95a8	-0.42692304
11	0xbe403dc6	-0.18773565
12	0xbea96588	-0.33085275
13	0xbf3c0f96	-0.7346128
14	0xbe47dfa0	-0.195189
15	0xbea57889	-0.32318524
16	0xbe9dc30d	-0.30812874
17	0xbeb75021	-0.3580332
18	0xbf26028b	-0.6484763
19	0xbe21ea59	-0.15812053
20	0xbd305a89	-0.04305509
21	0xbeedf8c4	-0.46478856
22	0xbed04bd7	-0.4068286
23	0xbf18f8a6	-0.5975441
24	0xbee21c0c	-0.44162023
25	0xbef279d8	-0.47358584
26	0xbf02401b	-0.5087907
27	0xbee71a7b	-0.4513739
28	0xbf1ca925	-0.61195594
29	0xbea25f8c	-0.3171352
30	0xbe3c7fc6	-0.18408117
31	0xbe6d463a	-0.2317132
32	0xbec93ffb	-0.39306626
33	0xbef18d4c	-0.47178113
34	0xbf23d543	-0.63997287
35	0xbe96fb53	-0.2948862
36	0xbe88020d	-0.26564065
37	0xbf06bc89	-0.5263143
38	0xbe592393	-0.21204977
39	0xbe912b5f	-0.28353402
40	0xbef201ba	-0.47266942
41	0xbed7ca3f	-0.4214649
42	0xbf069a01	-0.5257874
43	0xbf017701	-0.5057221
44	0xbed5db06	-0.41768664
45	0xbe84fdac	-0.25974786
46	0xbed07400	-0.407135
47	0xbefb53bf	-0.4908733
48	0xbe8a59b8	-0.27021575
49	0xbf1529de	-0.5826701
50	0xbe61f318	-0.22065389
51	0xbf19d23b	-0.6008641
52	0x3cedef20	0.029044688
53	0xbf134c66	-0.5753845
54	0xbeb0cdbd	-0.34531966
55	0xbbf562bb	-0.007488576
56	0xbf2993f5	-0.6624139
57	0xbf16f95c	-0.5897424
58	0xbefd8fa6	-0.49523658
59	0xbeb70532	-0.3574615
60	0xbdd6850f	-0.10474598
61	0xbf212daa	-0.629603
62	0xbf06569e	-0.5247592
63	0xbf185f83	-0.5952074
64	0xbf0f3158	-0.5593467
65	0xbed7f84b	-0.4218162
66	0xbf2c4ab2	-0.67301476
67	0xbedb20f7	-0.42798588
68	0xbf1627f0	-0.5865469
69	0xbf0f0477	-0.5586619
70	0xbf159f42	-0.58446133
71	0xbebe9f2b	-0.3723081
72	0xbf27cfec	-0.6555164
73	0xbeec764a	-0.46183997
74	0xbe64da65	-0.22348936
75	0xbec04ce2	-0.37558657
76	0xbf09c969	-0.5382295
77	0xbf00cf70	-0.50316525
78	0xbef525ac	-0.47880304
79	0xbf41fa7b	-0.7577283
80	0xbefe9c9a	-0.49728853
81	0xbe06a4dd	-0.13148828
82	0xbec303ca	-0.38088828
83	0xbf215e05	-0.6303409
84	0xbea1e798	-0.31622005
85	0xbddaa9e9	-0.10676939
86	0xbeeb9e55	-0.46019235
87	0xbf12b45a	-0.57306445
88	0xbebb4dfe	-0.3658294
89	0xbeebe2ad	-0.46071377
90	0xbf16df4d	-0.5893448
91	0xbecb3081	-0.39685443
92	0xbf1d4834	-0.614383
93	0xbf045cf4	-0.51704335
94	0xbf052a8b	-0.5201804
95	0xbf02ca57	-0.51089996
96	0xbe9e2e8d	-0.3089489
97	0xbee5b389	-0.44863537
98	0xbea19016	-0.3155524
99	0xbeae3930	-0.34028006
100	0xbe83609b	-0.25659642
101	0xbf1f0b52	-0.6212665
102	0xbee50a4b	-0.44734415
103	0xbf07c20c	-0.5303047
104	0xbf161528	-0.5862603
105	0xbed93e9f	-0.4243059
106	0xbf4519a1	-0.7699223
107	0xbed677ae	-0.41888183
108	0xbf03ba2f	-0.5145597
109	0xbec5a381	-0.38601306
110	0xbf1a4e9d	-0.60276204
111	0xbee23d12	-0.44187218
112	0xbe92dc37	-0.28683636
113	0xbed8a4bd	-0.42313185
114	0xbea6530a	-0.3248523
115	0xbe92afd5	-0.28649774
116	0xbefb4be4	-0.49081337
117	0xbee3961c	-0.44450462
118	0xbead8e66	-0.33897704
119	0xbf1bcaca	-0.60856307
120	0xbeef0f4a	-0.46691352
121	0xbf00dd75	-0.50337917
122	0xbf2c739b	-0.673639
123	0xbe774fe4	-0.2415157
124	0x3d2a0438	0.04150793
125	0xbf1b01bd	-0.6054953
126	0xbe5026cb	-0.20327298
127	0xbee8274c	-0.4534248
128	0xbf020b88	-0.50798845
129	0xbdfe71b7	-0.12424033
130	0xbec5517e	-0.38538736
131	0xbdf4fe19	-0.11962528
132	0xbe80d01d	-0.25158778
133	0xbf4fda5b	-0.8119256
134	0xbe885960	-0.26630688
135	0x3e64d18a	0.22345558
136	0xbe45333b	-0.19257824
137	0xbcc735bc	-0.024317615
138	0xbe8d15ea	-0.27555782
139	0xbe81637a	-0.25271207
140	0xbea9fb57	-0.3319957
141	0x3e2abf81	0.16674615
142	0xbf50883f	-0.81457895
143	0xbeb1946a	-0.34683543
144	0xbd6cd41d	-0.057819474
145	0xbf0bbc9c	-0.5458467
146	0x3ebb60e5	0.36597362
147	0xbd6031aa	-0.054734863
148	0xbf2b3aef	-0.668868
149	0xbe98c3cb	-0.29836878
150	0xbeb293ef	-0.3487849
151	0x3dd158a1	0.10221983
152	0xbe76c077	-0.24096857
153	0xbea95a5a	-0.33076745
154	0xbe7da124	-0.24768502
155	0xbe57f30b	-0.21088807
156	0xbf1732ba	-0.5906178
157	0xbf0569dc	-0.52114654
158	0xbf0448fa	-0.51673853
159	0xbf12080c	-0.5704353
160	0xbeed54c0	-0.46353722
161	0x3e563397	0.20918117
162	0xbea5ebac	-0.32406366
163	0xbefdf35e	-0.49599737
164	0xbe8bcc5a	-0.27304345
165	0xbe70e32f	-0.23524164
166	0xbf22bccf	-0.6356935
167	0xbd98e97b	-0.07466408
168	0xbd232a6c	-0.03983538
169	0xbe98c86f	-0.2984042
170	0xbea2e220	-0.31813145
171	0xbe43cb0a	-0.19120422
172	0xbee0427c	-0.43800724
173	0xbdaa0911	-0.083025105
174	0xbe912204	-0.28346264
175	0x3dd6a1f1	0.104801066
176	0xbf2ca3b7	-0.6743731
177	0xbdbfa817	-0.093582325
178	0xbf286eec	-0.65794253
179	0x3e18885a	0.14895764
180	0xbe982d42	-0.2972203
181	0xbd6874ea	-0.056752123
182	0xbf0bc0e2	-0.5459119
183	0xbf53cc87	-0.8273396
184	0xbd50bffd	-0.050964344
185	0xbeaff8a5	-0.34369388
186	0xbee200b4	-0.4414116
187	0xbe526dd6	-0.20549712
188	0xbea499d3	-0.3214861
189	0xbe957596	-0.29191273
190	0x3dbc504c	0.09195003
191	0x3d9cbcca	0.07653196
192	0x3e6f7299	0.2338356
193	0xbeddc301	-0.4331284
194	0x3c455ced	0.012046081
195	0xbe9907d2	-0.2988878
196	0xbea22e54	-0.3167597
197	0xbf0a8293	-0.5410549
198	0x3c5b16ad	0.013372106
199	0xbefe9bb4	-0.49728167
200	0xbe8dd6ad	-0.27702847
201	0xbe125300	-0.14289474
202	0xbe1fd439	-0.156083
203	0xbeab8317	-0.3349845
204	0xbf138285	-0.5762103
205	0xbe970cab	-0.29501852
206	0xbf20f4a2	-0.6287328
207	0xba434152	-0.0007448393
208	0xbe6fba75	-0.23410971
209	0xbf5528c8	-0.8326535
210	0xbed049d5	-0.4068133
211	0xbe005777	-0.12533365
212	0xbe0a1aa5	-0.13486727
213	0xbf51263b	-0.8169896
214	0xbf17e94e	-0.5934037
215	0xbf010f27	-0.50413746
216	0xbf071fc6	-0.5278286
217	0xbef56896	-0.47931355
218	0xbeef95ef	-0.46794078
219	0xbe375872	-0.17904833
220	0xbe865fc9	-0.26244953
221	0xbf21af9d	-0.6315859
222	0xbe776313	-0.24158888
223	0xbea25010	-0.31701708
224	0xbd46c60b	-0.048528712
225	0xbefb68bf	-0.49103352
226	0xbeb39039	-0.3507097
227	0xbc31d5cc	-0.010854196
228	0xbe83c64c	-0.25737226
229	0x3e2299e1	0.15879013
230	0xbf1f4e53	-0.6222889
231	0xbe7c7f41	-0.24657919
232	0xbf02097c	-0.5079572
233	0xbe61ff90	-0.22070146
234	0x3d962f9c	0.073332995
235	0xbe84d5d8	-0.259444
236	0x3cc6a1f0	0.02424714
237	0xbd67f407	-0.056629207
238	0xbe2270c5	-0.1586333
239	0xbef610bd	-0.48059645
240	0x3dc3544c	0.09537563
241	0x3ef30b5c	0.47469604
242	0xbf13fafa	-0.57804835
243	0xbf1d2b3e	-0.6139411
244	0xbee261fc	-0.4421538
245	0xbe5327f6	-0.20620713
246	0xbedb66ee	-0.42851967
247	0xbddfa68c	-0.10920438
248	0xbd694db3	-0.056958865
249	0xbd34224d	-0.043978024
250	0xbe1cfa47	-0.15329848
251	0xbf289c25	-0.6586326
252	0xbd52bfc4	-0.051452413
253	0xb9b7d860	-0.00035065692
254	0xbeb05eab	-0.34447226
255	0xbea5cb68	-0.3238175

lstm.bias_hh_l0 f4 [512]
0	0xbdf10837	-0.11769145
1	0xbf37212e	-0.71535003
2	0xbf08a468	-0.53375864
3	0xbee20d77	-0.44150898
4	0xbf034193	-0.51271933
5	0xbc48935c	-0.012242164
6	0xbea7e6ad	-0.3279318
7	0xbf4b7e41	-0.79489523
8	0xbf04a5a8	-0.5181527
9	0xbf12cd42	-0.5734445
10	0xbef46c50	-0.47738886
11	0xbe83dcbd	-0.25754347
12	0xbea0e412	-0.31424004
13	0xbf2f1242	-0.68387234
14	0xbe85913d	-0.2608737
15	0xbe8eee16	-0.2791602
16	0xbe80d90b	-0.2516559
17	0xbea4e397	-0.32204887
18	0xbf052b11	-0.5201884
19	0xbe4acbe9	-0.19804348
20	0xbe48ed82	-0.19621852
21	0xbf0e41b8	-0.5556903
22	0xbecc21d7	-0.39869568
23	0xbf1e95e0	-0.6194744
24	0xbea36e16	-0.31919926
25	0xbeaf9333	-0.34291992
26	0xbee9aa92	-0.45637947
27	0xbebecb07	-0.37264273
28	0xbf3d5aed	-0.73966867
29	0xbe88cc88	-0.26718545
30	0xbe1cf40e	-0.15327474
31	0xbe69cc94	-0.22831947
32	0xbef62f05	-0.48082748
33	0xbefcd500	-0.49381256
34	0xbf1ae0a1	-0.60499007
35	0xbe85ed26	-0.26157492
36	0xbe3c1200	-0.18366241
37	0xbf06ca9c	-0.5265291
38	0xbe21d48d	-0.15803738
39	0xbeab2059	-0.33423117
40	0xbef57024	-0.4793712
41	0xbec15fa7	-0.3776829
42	0xbef359d4	-0.4752947
43	0xbee6a908	-0.45050836
44	0xbedd25ea	-0.4319299
45	0xbe99aa40	-0.30012703
46	0xbedfe95c	-0.43732727
47	0xbf094b61	-0.53630644
48	0xbe73d181	-0.23810388
49	0xbf15e10e	-0.5854653
50	0xbea953eb	-0.33071837
51	0xbf1efbb7	-0.62102836
52	0xbde8292b	-0.11335977
53	0xbef6974f	-0.48162314
54	0xbeb85b35	-0.36007085
55	0x3d40379c	0.046928033
56	0xbf0b36ad	-0.54380304
57	0xbeeebeda	-0.46629983
58	0xbf06ab2c	-0.5260494
59	0xbec1f976	-0.37885636
60	0xbdaa52bd	-0.08316562
61	0xbf32cb2c	-0.69841266
62	0xbf1a9b23	-0.6039297
63	0xbf12d8fd	-0.5736235
64	0xbf11b38c	-0.5691459
65	0xbeb42495	-0.3518416
66	0xbf281272	-0.65653145
67	0xbe9dcd89	-0.30820873
68	0xbef47bea	-0.4775079
69	0xbf1d8a23	-0.61538905
70	0xbf208710	-0.6270609
71	0xbe54ba97	-0.20774303
72	0xbf2b981c	-0.67028975
73	0xbef04b1c	-0.46932304
74	0xbe9efe08	-0.31053185
75	0xbeceda9c	-0.4040116
76	0xbf17ada1	-0.5924931
77	0xbf08d454	-0.53448987
78	0xbef9bcb9	-0.48776796
79	0xbf54151b	-0.82844704
80	0xbed199d1	-0.40937665
81	0x3cddbae3	0.027066654
82	0xbe9f9b14	-0.31173003
83	0xbf12aae5	-0.57292014
84	0xbe8f5614	-0.2799536
85	0xbdec95e5	-0.115520276
86	0xbeb243b7	-0.34817287
87	0xbf009369	-0.5022493
88	0xbeae0982	-0.3399163
89	0xbedb9378	-0.42885947
90	0xbf1b31f1	-0.6062308
91	0xbeeec5d1	-0.46635297
92	0xbf030a71	-0.5118781
93	0xbed3e7be	-0.41387743
94	0xbf19db7f	-0.6010055
95	0xbf2a99e1	-0.6664105
96	0xbe9f60c7	-0.31128523
97	0xbf0d0d25	-0.5509818
98	0xbe7fb654	-0.24971896
99	0xbefaddfc	-0.48997486
100	0xbe7783c4	-0.24171358
101	0xbf17452e	-0.59089935
102	0xbef6f3c7	-0.48232862
103	0xbee62142	-0.4494725
104	0xbf2b1c78	-0.66840315
105	0xbeecdc01	-0.462616
106	0xbf3ddcc9	-0.74165016
107	0xbf07cc23	-0.5304586
108	0xbf1d2b78	-0.61394453
109	0xbeb9085d	-0.36139193
110	0xbf29c6f3	-0.663192
111	0xbeae1930	-0.34003592
112	0xbed23ce3	-0.41062078
113	0xbec2a4ef	-0.3801646
114	0xbea8b864	-0.3295318
115	0xbeb176d3	-0.34660968
116	0xbefe53c4	-0.49673283
117	0xbe9b525c	-0.30336273
118	0xbed62b72	-0.4183002
119	0xbf0d2e77	-0.55149025
120	0xbed7dfac	-0.42162836
121	0xbf03979b	-0.51403207
122	0xbf2f10b7	-0.6838488
123	0xbe39fe38	-0.18163383
124	0xbddadf90	-0.106871724
125	0xbf05d856	-0.5228323
126	0xbe0a9bd7	-0.1353601
127	0xbeb218e2	-0.3478461
128	0xbeda197c	-0.42597568
129	0xbc76c10a	-0.015060673
130	0xbe9e8362	-0.30959612
131	0xbdea42e9	-0.11438543
132	0xbe65fac7	-0.22458945
133	0xbf31a76b	-0.69396085
134	0xbe62998b	-0.22128884
135	0x3e9913da	0.29897958
136	0xbdddb1e2	-0.10824944
137	0x3d250b43	0.040293943
138	0xbeb7263e	-0.35771364
139	0xbe81a102	-0.25318152
140	0xbe9cb1e5	-0.30604473
141	0x3d91bee0	0.07116485
142	0xbf4b87bf	-0.7950401
143	0xbefd851c	-0.49515617
144	0xbca2bfad	-0.019866789
145	0xbf0718c6	-0.52772176
146	0x3e8f2c1d	0.27963343
147	0xbe0a9bba	-0.13535967
148	0xbf41341b	-0.7547013
149	0xbe74756a	-0.23872915
150	0xbed388a7	-0.41315195
151	0x3e3e0c6a	0.18559423
152	0xbe54c15f	-0.2077689
153	0xbe5e4d14	-0.2170909
154	0xbe6a095d	-0.22855134
155	0xbddbb1e2	-0.10727288
156	0xbf19764a	-0.5994612
157	0xbf1d598f	-0.6146478
158	0xbf012414	-0.50445676
159	0xbf1cc15a	-0.6123253
160	0xbee9f668	-0.45695806
161	0x3e59cb0b	0.21268861
162	0xbeb8fbec	-0.361297
163	0xbee668bb	-0.45001778
164	0xbe862b60	-0.26204967
165	0xbe4acfd7	-0.19805847
166	0xbf1aa2b9	-0.60404545
167	0xbd496ac7	-0.049174096
168	0xbcd96904	-0.026539333
169	0xbe936a9d	-0.28792277
170	0xbe6f1f87	-0.2335187
171	0xbe40d564	-0.18831402
172	0xbf08c755	-0.53429157
173	0xbddf492b	-0.109026276
174	0xbe339454	-0.17537051
175	0x3de53c69	0.11193163
176	0xbf0d75c6	-0.55257833
177	0xbdd9c529	-0.106333084
178	0xbf281c80	-0.6566849
179	0x3e328688	0.17434132
180	0xbe6ceea2	-0.23137906
181	0x3d5efbf3	0.054439496
182	0xbf1fa69a	-0.6236359
183	0xbf5431c3	-0.8288843
184	0xbd8ca665	-0.06867675
185	0xbea0e935	-0.31427923
186	0xbe9dc8d6	-0.30817288
187	0xbe73ef2e	-0.23821709
188	0xbeaca95b	-0.33722958
189	0xbe91b8de	-0.28461355
190	0x3e14d585	0.14534576
191	0x3e1ccf57	0.15313469
192	0x3e2bb8f1	0.16769768
193	0xbef65678	-0.48112845
194	0xbdc8360d	-0.09775934
195	0xbe42b3b6	-0.19013867
196	0xbe9e4ad2	-0.30916458
197	0xbf05d562	-0.5227872
198	0x3b9caf9d	0.004781677
199	0xbf050f8b	-0.5197684
200	0xbe2db379	-0.16962995
201	0xbe2e7238	-0.17035758
202	0xbe3d7835	-0.18502887
203	0xbe7b568c	-0.24544734
204	0xbf11a3e3	-0.56890696
205	0xbec26b4f	-0.37972495
206	0xbf099588	-0.5374379
207	0x3cf59432	0.029977892
208	0xbe86b392	-0.26308876
209	0xbf3a1d5c	-0.7270105
210	0xbea9c33d	-0.33156767
211	0xbe821dc9	-0.2541335
212	0x3b18d514	0.0023320364
213	0xbf44799d	-0.7674807
214	0xbf1df850	-0.6170702
215	0xbf055a59	-0.52090985
216	0xbf0461ef	-0.51711935
217	0xbee651d0	-0.44984293
218	0xbeee24df	-0.46512505
219	0xbdc1fbe9	-0.09471876
220	0xbe857bd5	-0.2607104
221	0xbf20fbab	-0.62884015
222	0xbe615525	-0.22005136
223	0xbe92ca32	-0.28669888
224	0xbe278c4a	-0.1636211
225	0xbeec49d0	-0.46150064
226	0xbea0d099	-0.31409147
227	0xbd9cbfbd	-0.07653759
228	0xbe4232b9	-0.18964662
229	0x3bf326f1	0.0074204137
230	0xbf28820f	-0.65823454
231	0xbe9f558c	-0.31119955
232	0xbf13b65e	-0.57700145
233	0xbe100d8d	-0.14067669
234	0x3c6d7732	0.01449375
235	0xbec4663e	-0.38359255
236	0x3dcbb1ad	0.09945998
237	0xbd08985e	-0.033348434
238	0xbdcb17a0	-0.099166155
239	0xbf0af104	-0.5427401
240	0x3e0fd4ea	0.14046064
241	0x3e9ce522	0.30643564
242	0xbf05e860	-0.523077
243	0xbf04ae23	-0.5182821
244	0xbed643c8	-0.41848588
245	0xbe6fbed7	-0.23412643
246	0xbeceafce	-0.40368503
247	0xbc7ec9d7	-0.015551052
248	0xbcb15b28	-0.021649912
249	0x3b867222	0.004102961
250	0xbdacfa9d	-0.08446238
251	0xbf1b714f	-0.6071977
252	0xbd35b186	-0.044358753
253	0x3d870b69	0.06593973
254	0xbee7e5b9	-0.45292452
255	0xbebc80c2	-0.36816984

fc.weight f4 [20, 128]
0	0x3db12c9d	0.086510874
1	0x3f97822a	1.1836598
2	0xbfae21dc	-1.3604083
3	0xbfd2176f	-1.6413401
4	0x3fb1e41f	1.3897742
5	0x3ec726bd	0.38896742
6	0xbf8a5ff6	-1.0810535
7	0x3ecbe0c7	0.3981993
8	0x3d9afab7	0.07567351
9	0x3fa054a9	1.2525836
10	0xbf82b1bb	-1.0210489
11	0x3fdd1fa8	1.7275286
12	0xbef33b4a	-0.4750617
13	0xbd92d14b	-0.07168826
14	0x3fcd31ec	1.603086
15	0xbfb3d5ff	-1.4049681
16	0x3ee8ed73	0.4549366
17	0xbfca09ab	-1.57842
18	0xc0041045	-2.063493
19	0xbead254c	-0.33817518
20	0xbe9a5006	-0.30139178
21	0x3fb5cbc9	1.4202815
22	0xbf449b01	-0.7679902
23	0xbfa07750	-1.2536411
24	0xbe567d05	-0.20946129
25	0xbf177b38	-0.5917239
26	0xbfc0e198	-1.5068846
27	0x3fd403a0	1.6563606
28	0x401af0b3	2.420941
29	0xbf9a8791	-1.2072622
30	0x3fb5dbaa	1.4207661
31	0x3eb1ab98	0.34701228
32	0xbe8b42d8	-0.27199435
33	0x3f0328c2	0.51234066
34	0xbf9995bc	-1.199882
35	0xbe9390de	-0.28821462
36	0x3fd4e590	1.6632557
37	0xbd988619	-0.07447452
38	0x3f7dbdbf	0.99117655
39	0xbf9a2255	-1.2041727
40	0xbe30737a	-0.17231551
41	0xbfce64ca	-1.6124508
42	0xc00e1138	-2.219801
43	0xbf9800fc	-1.18753
44	0x3ec7f5cf	0.39054725
45	0x40182fb7	2.3779123
46	0x3fbf8fd3	1.4965767
47	0x3f9c1ae2	1.2195704
48	0x3f74497e	0.9542464
49	0xbe6e081f	-0.23245285
50	0x3e3a6f92	0.18206623
51	0x3f8b7b3e	1.0896986
52	0x3de7af5e	0.113127455
53	0xbff53a2a	-1.9158375
54	0xbee2dc70	-0.44308805
55	0x3eced46f	0.4039645
56	0xbf407441	-0.7517739
57	0xbf9b8554	-1.2150064
58	0x3ed4eec6	0.4158842
59	0xc0326dd2	-2.787953
60	0x3f59ddce	0.8510407
61	0xbfbaf123	-1.4604839
62	0xbf734abd	-0.95035917
63	0xc001113a	-2.0166764
64	0xbfa2be73	-1.271437
65	0xbdc3ecf4	-0.095666796
66	0xbf388a5b	-0.72086114
67	0xc00601fd	-2.0938714
68	0x3fa1ea89	1.26497
69	0x3fd91426	1.6959274
70	0xbfd24fe9	-1.6430637
71	0xc0072a6e	-2.1119647
72	0x403e8ce7	2.97735
73	0xbfd181b3	-1.6367706
74	0xbfe8608a	-1.8154461
75	0x3ff05666	1.8776367
76	0x3fbd18a1	1.4773141
77	0xbee9cbb6	-0.45663232
78	0xbf86e820	-1.0539589
79	0xbf48199e	-0.7816409
80	0xbf4e600e	-0.8061532
81	0xbeaa9086	-0.33313388
82	0xbf853035	-1.0405337
83	0xbf299c1b	-0.66253823
84	0x3fa5fe82	1.2968295
85	0x3ff189a7	1.8870133
86	0xbee693b0	-0.45034552
87	0xbf27d57d	-0.6556013
88	0x3f4f3cff	0.8095245
89	0xc0254094	-2.5820665
90	0xbe9a4d09	-0.30136898
91	0x3f56efd5	0.83959705
92	0xbfb2bb3c	-1.3963389
93	0x3f7e51fa	0.99343836
94	0xbfb76f67	-1.4330872
95	0xbfcacc29	-1.5843555
96	0x3f2effd5	0.6835912
97	0xbf5836d1	-0.84458643
98	0xbf7e27a2	-0.99279225
99	0x3fba1bdc	1.4539752
100	0x40123a76	2.2848182
101	0xbfcf1f8d	-1.6181504
102	0xbfadf374	-1.3589921
103	0x3f5acd53	0.8546955
104	0x3ff70263	1.9297603
105	0x3ef63e24	0.48094285
106	0xbec9b8b1	-0.3939872
107	0xbf08b79c	-0.53405166
108	0xbedeff93	-0.43554363
109	0x3f32da67	0.69864506
110	0x401da694	2.4632921
111	0x3ee25760	0.44207287
112	0x3fd0848f	1.6290454
113	0xbf492995	-0.78579074
114	0x3e92810b	0.28614077
115	0x3dba8d7a	0.09109016
116	0x40026772	2.0375638
117	0xc04abfd0	-3.1679573
118	0xbe2b574a	-0.16732517
119	0xbfb15b9a	-1.385608
120	0x3eea048c	0.45706594
121	0x3fc3ba4f	1.5291232
122	0xbf9aa4a4	-1.2081494
123	0xbfc49670	-1.535841
124	0x3f509d5a	0.814901
125	0xbf557b5d	-0.8339136
126	0xbfe4302e	-1.7827203
127	0xbf6fe116	-0.9370283
128	0xbf7a40e9	-0.97755295
129	0x3fce896b	1.6135687
130	0xbfb50fd5	-1.4145457
131	0x401d1305	2.4542859
132	0xbf50e294	-0.8159573
133	0x3f5399ca	0.8265654
134	0xbec687a5	-0.38775364
135	0xbfeebdd4	-1.8651681
136	0xbf440071	-0.76563174
137	0x3f1bacd2	0.6081058
138	0xbf41f431	-0.7576323
139	0x3dd8aebf	0.10580205
140	0xbfe702b6	-1.8047702
141	0xbec71307	-0.38881704
142	0xbe8c41e4	-0.2739402
143	0x3eaa1bf4	0.33224452
144	0x3f702fec	0.9382312
145	0xbfe450b6	-1.7837131
146	0xbf6641d3	-0.8994419
147	0x3c8bd4e6	0.017069291
148	0xc00099fd	-2.0093987
149	0xbffccf6d	-1.9750801
150	0xbfcc4bf8	-1.5960684
151	0xbe898240	-0.26857185
152	0xc046dbaa	-3.1071572
153	0xc08167c1	-4.0439153
154	0x3f9ea493	1.2393974
155	0x3eb9ff7c	0.36327732
156	0xbfd8e515	-1.694491
157	0x4002e63c	2.0453024
158	0xbf9fc646	-1.2482383
159	0xbfda3740	-1.7048111
160	0x400e4e26	2.2235198
161	0xc003e52b	-2.0608623
162	0x3f29b8c8	0.6629758
163	0xbf01be2c	-0.50680804
164	0x3f142657	0.57871
165	0x3fba9459	1.4576522
166	0x3faa290e	1.3293779
167	0xbebc36dc	-0.36760604
168	0x3fee5174	1.8618608
169	0x40038937	2.05525
170	0x3fe5f9e2	1.7966883
171	0xbf212208	-0.6294255
172	0xbf911bd5	-1.1336619
173	0xbe750bf1	-0.23930337
174	0xc02907d6	-2.6411033
175	0x3de5c51c	0.11219236
176	0x3fffcfd1	1.9985296
177	0xbe0aacce	-0.13542482
178	0x3fa94841	1.3225175
179	0xbfff066e	-1.9923837
180	0xbe6a6be5	-0.22892721
181	0x3f7342f9	0.9502407
182	0x3ff949fe	1.9475706
183	0x3fbc0644	1.4689412
184	0xbfd7e2a2	-1.6866038
185	0x3ffa8f9b	1.9575075
186	0xbfaf668d	-1.3703171
187	0xbf18ee6f	-0.5973882
188	0xbfba6fd0	-1.4565372
189	0xbee65d64	-0.44993126
190	0xbfbc33fe	-1.4703367
191	0xbfbeda45	-1.491036
192	0x3f848f72	1.0356276
193	0x3ed34459	0.41263083
194	0xc0078b11	-2.117863
195	0xbe79c108	-0.24390042
196	0x3facb2c7	1.3492059
197	0xbef1449d	-0.4712266
198	0xbf57ce87	-0.8429951
199	0x401d92bd	2.4620812
200	0x3e86c21d	0.26319972
201	0x3fcc2d95	1.595141
202	0xbed01798	-0.40643
203	0x3f3b2132	0.7309753
204	0xbed9181b	-0.42401204
205	0xc0171982	-2.3609319
206	0x404aa641	3.1663973
207	0x400bdb26	2.1852508
208	0xbf089a3f	-0.5336036
209	0xbf277ba8	-0.6542306
210	0x3f352a12	0.7076732
211	0xbeeff18c	-0.46863973
212	0xbf63bdd0	-0.88961506
213	0xbe0abfba	-0.135497
214	0xbec92f17	-0.3929374
215	0x400efec2	2.2342992
216	0xbedc9ac0	-0.43086815
217	0xbf508597	-0.8145384
218	0xbf380490	-0.7188196
219	0x3fd3aaf1	1.6536542
220	0x405159ef	3.271114
221	0x3f380dbd	0.7189596
222	0x3f8a5e1e	1.0809972
223	0x3faa2aed	1.329435
224	0xbf8bf6e4	-1.093472
225	0x40115561	2.270836
226	0x3f5dffa4	0.867182
227	0x3ffcd0f1	1.9751264
228	0x3c7abfa3	0.015304479
229	0xc0449697	-3.0716913
230	0xbe9c6cb9	-0.305517
231	0x3f2fe8f9	0.68714863
232	0x3e998d76	0.2999074
233	0x401bb4aa	2.4329019
234	0xbd6a9c89	-0.05727819
235	0x400cee7c	2.202056
236	0x400d1f0b	2.2050197
237	0x3e7fb167	0.24970017
238	0x3fe8e9f9	1.8196403
239	0xbfd10151	-1.6328527
240	0xc0697c02	-3.6481938
241	0xbf93cb4e	-1.1546419
242	0xbe85a861	-0.26105025
243	0x3f9d2f15	1.2279993
244	0xbfab3fa3	-1.3378795
245	0x3ef39417	0.4757392
246	0x3fbd03ca	1.4766781
247	0xbef7c98c	-0.48395956
248	0xbed02feb	-0.40661559
249	0xbef6a515	-0.48172823
250	0xbf8674f1	-1.0504438
251	0xbf2c01dc	-0.6719034
252	0xc02abe58	-2.6678677
253	0x3f18feb1	0.5976363
254	0xbe8018e8	-0.25019002
255	0xbebea9d2	-0.37238938

fc.bias f4 [20]
0	0xbd80518f	-0.06265556
1	0x3eb4d82f	0.35321185
2	0xbda5a4b5	-0.08088056
3	0x3cfdbe78	0.030974612
4	0xbd7b5b21	-0.061366204
5	0x3d6662ec	0.056246683
6	0xbe07d1d0	-0.13263631
7	0xbe550081	-0.20800973
8	0x3eb587b5	0.354551
9	0x3ef9dd1b	0.48801503
10	0xbedb8e42	-0.42881972
11	0x3e113102	0.14178851
12	0xbe16379b	-0.1466965
13	0xbedf6134	-0.43628848
14	0x3e76ffa6	0.2412096
15	0x3e55d3f1	0.2088163
16	0x3d40bd52	0.04705555
17	0x3cc8bab7	0.024503095
18	0xbf9b4a11	-1.2131978
19	0xbf0f8da7	-0.5607552

exp_avg f4 [512, 20]
0	0x389fc220	7.6178694e-05
1	0x378592ba	1.592316e-05
2	0xb94d0884	-0.00019553496
3	0x38c07823	9.177651e-05
4	0xb923d554	-0.00015624362
5	0x3979b3fd	0.00023813541
6	0xb962cf2b	-0.00021630216
7	0xb8f22bc7	-0.000115476134
8	0x39b5c5bc	0.00034670334
9	0xba453b56	-0.00075237954
10	0x38ceea40	9.866478e-05
11	0xb9867b82	-0.00025650492
12	0xba469414	-0.0007575166
13	0x38f96427	0.000118919
14	0xbaab329c	-0.0013061347
15	0xb8d27827	-0.000100359604
16	0x397dcd91	0.0002420454
17	0x391b76a0	0.00014826143
18	0xb90d1748	-0.00013455481
19	0x381c55ed	3.7273323e-05
20	0xb9be9014	-0.0003634697
21	0x3b267a9b	0.0025402668
22	0xb91c3525	-0.00014897117
23	0xb9d9bfd3	-0.00041532386
24	0x39949d20	0.00028345827
25	0x39883f6c	0.00025987194
26	0x39a2906d	0.00031006653
27	0xb89947c3	-7.308975e-05
28	0x3924f48d	0.00015731361
29	0xb915f20b	-0.00014299915
30	0x386059a4	5.3489246e-05
31	0x3932cb8a	0.00017051227
32	0xb8c997b1	-9.6126816e-05
33	0x38917218	6.9353904e-05
34	0x3a20bdef	0.0006131818
35	0x3a2e6c51	0.00066537136
36	0xb9239ce4	-0.00015603338
37	0x3a31791d	0.00067700614
38	0xb9cc266e	-0.00038938544
39	0x3a89f4a1	0.0010525176
40	0xba31733e	-0.00067691866
41	0x3a1978ed	0.0005854506
42	0x3a6dd4ea	0.0009072559
43	0xba105368	-0.00055055926
44	0xba5a0746	-0.0008317124
45	0xba99563e	-0.0011698676
46	0xb9c13177	-0.00036848683
47	0xb9987c0a	-0.00029084116
48	0x3a0bd933	0.00053347944
49	0xb957aaf8	-0.00020567689
50	0xb8a1709e	-7.698055e-05
51	0xb9b49de2	-0.00034449907
52	0x3abdc9c6	0.0014479689
53	0xb76034a8	-1.33637e-05
54	0x387c97ea	6.0222963e-05
55	0xb95d9745	-0.00021132555
56	0xba3a5917	-0.00071086123
57	0xba3a5dc1	-0.00071093073
58	0xb66b3f3c	-3.5054536e-06
59	0x391591c6	0.00014264052
60	0xb61719fa	-2.2515874e-06
61	0x379019ce	1.7178154e-05
62	0x397036eb	0.00022908642
63	0xb9b45d29	-0.00034401685
64	0x38b3b8f2	8.569834e-05
65	0xb9e34e3b	-0.000433551
66	0x399b876a	0.00029664795
67	0x3a0d06ab	0.0005379717
68	0xb8ffd8f9	-0.00012199762
69	0xbb3123c6	-0.002702938
70	0xb8c125af	-9.209976e-05
71	0x39ef020b	0.00045587154
72	0x39f24384	0.0004620814
73	0x383ec509	4.5483033e-05
74	0x3a739e7c	0.00092933304
75	0xb98a6a35	-0.00026400542
76	0x39b1f6dc	0.00033943995
77	0xb840567e	-4.585692e-05
78	0xb8a60de0	-7.918081e-05
79	0xb9298054	-0.00016164902
80	0x38b0a629	8.423284e-05
81	0x3a1e9e69	0.00060508266
82	0xb91e3714	-0.00015088572
83	0xba1eb90a	-0.00060547946
84	0x398ad445	0.00026479564
85	0xb96bd086	-0.00022489027
86	0xb9248be4	-0.00015692372
87	0x394188f7	0.00018456938
88	0x39cac8ae	0.0003867796
89	0x39ed780b	0.00045293602
90	0xb95de08d	-0.00021159854
91	0xba0115cf	-0.0004924209
92	0xb8815ed6	-6.168864e-05
93	0x384bdcfd	4.8604783e-05
94	0xbaa26e21	-0.001239244
95	0xbadb983b	-0.0016753742
96	0x39d92378	0.00041415892
97	0xba1e790a	-0.0006045258
98	0xb8e7da22	-0.00011055569
99	0xb9e64f4f	-0.00043928108
100	0xbaa1a04b	-0.0012331096
101	0xb997951d	-0.00028912062
102	0xb9c6aba4	-0.00037893385
103	0x3a4fe79a	0.00079309347
104	0xb81892d7	-3.637638e-05
105	0x398f5dfd	0.00027345112
106	0xb3738c76	-5.6705595e-08
107	0xb73a691f	-1.1110939e-05
108	0xb83c6d86	-4.4924695e-05
109	0xb91594b5	-0.00014265145
110	0xb8497501	-4.8031103e-05
111	0xba144877	-0.000565655
112	0x399f57ee	0.00030392356
113	0x3a029d95	0.0004982588
114	0x3a09039b	0.00052266725
115	0x396ba808	0.00022473943
116	0x39681de8	0.00022136385
117	0x3ab8a7dd	0.0014088113
118	0xba4fef32	-0.0007932066
119	0x3a57c7b8	0.00082313595
120	0x39258e6f	0.00015788687
121	0x398ed4d5	0.00027242923
122	0x3849c202	4.810282e-05
123	0x393b458a	0.00017859615
124	0xb971cc17	-0.0002305958
125	0xbad79b02	-0.0016449394
126	0x3a30224f	0.00067189796
127	0xb9379b9f	-0.00017510213
128	0xba9eeff8	-0.001212596
129	0xb7727c48	-1.44532605e-05
130	0xb934db1d	-0.00017247764
131	0x3894144b	7.06097e-05
132	0x37cc414e	2.4349105e-05
133	0xb9ac0263	-0.00032808175
134	0x3915b329	0.0001427649
135	0xb81ba6fb	-3.7110392e-05
136	0x383ea74a	4.545533e-05
137	0x39b72ca9	0.00034937754
138	0x391555f4	0.00014241767
139	0xb9adc753	-0.0003314564
140	0xb7a72a84	-1.992775e-05
141	0x3a819b1d	0.0009888146
142	0x38cbf49a	9.725355e-05
143	0x399d00ff	0.00029946116
144	0xb9117ae1	-0.00013874054
145	0x3a1f0615	0.0006066275
146	0x39155849	0.00014242636
147	0xb9aca2b1	-0.0003292761
148	0x3a32ab4d	0.0006815687
149	0xb74eccfb	-1.2326283e-05
150	0x39fc43b7	0.00048115637
151	0x39ae4327	0.000332379
152	0x3a23dd9f	0.00062509807
153	0x37096713	8.189835e-06
154	0x39a6cae3	0.0003181315
155	0xb8e47b96	-0.00010894907
156	0x3984a810	0.00025302218
157	0x390579db	0.00012729263
158	0x3a15cdf0	0.0005714586
159	0xb84ed718	-4.931455e-05
160	0xb7a3a0d7	-1.9506011e-05
161	0x394128f1	0.00018421166
162	0xb99c86f7	-0.00029855195
163	0xb8c459b9	-9.3627204e-05
164	0x3a07ec37	0.000518504
165	0xba378cb8	-0.0007001865
166	0xb89c77b8	-7.460959e-05
167	0x39f8268a	0.0004733096
168	0xb9cc55c0	-0.000389738
169	0x3a07b7af	0.00051772123
170	0x39801b8d	0.0002443459
171	0xb9499046	-0.000192226
172	0xb9d0570c	-0.00039737707
173	0x38ea8aea	0.00011183864
174	0xb8aec143	-8.332964e-05
175	0x3a8fd684	0.0010973965
176	0xb8dc80b8	-0.00010514393
177	0x39fc3cc7	0.00048110468
178	0xb9c17cea	-0.00036904897
179	0x3918a013	0.00014555482
180	0xb910183f	-0.00013741943
181	0x39b8674f	0.00035172186
182	0x3969cb05	0.00022296242
183	0x3885f9e0	6.388477e-05
184	0x39567546	0.00020452318
185	0xb9fcbc33	-0.00048205405
186	0xb9a13c89	-0.00030753415
187	0x398f5485	0.00027338057
188	0xb8b97676	-8.8435525e-05
189	0xb9a66467	-0.00031736793
190	0xb8ac2daa	-8.210105e-05
191	0xb940fa6e	-0.00018403839
192	0xb9586e4f	-0.00020640458
193	0x3a5d3d1a	0.0008439586
194	0xb978823b	-0.00023699638
195	0x39aa0dcd	0.0003243521
196	0xba221f3f	-0.00061844656
197	0xba2a5233	-0.0006497234
198	0x38d82d5c	0.000103081315
199	0x38cc0e40	9.730132e-05
200	0xba833bc6	-0.0010012321
201	0xb87810f0	-5.9143582e-05
202	0xb96c1b02	-0.00022516775
203	0x39081c87	0.00012980598
204	0xb8de8504	-0.00010610561
205	0xba237350	-0.00062351394
206	0x38d2b352	0.00010046981
207	0xb82640ca	-3.9637824e-05
208	0xb882a558	-6.229681e-05
209	0x39f4d240	0.00046695955
210	0xb903eb2e	-0.00012580745
211	0xb9d5d5ef	-0.0004078592
212	0xba09b1d5	-0.00052526343
213	0x38f135e5	0.00011501814
214	0x39e9df3d	0.0004460755
215	0x39ed2b1e	0.00045236287
216	0xb90a466c	-0.0001318694
217	0xb9aab360	-0.00032558572
218	0x38799b67	5.9510956e-05
219	0xb8cb0203	-9.680169e-05
220	0x3834ea88	4.313377e-05
221	0xba939b19	-0.0011261433
222	0xb946ca30	-0.00018958072
223	0x3a03c403	0.00050264614
224	0x37478c77	1.1894029e-05
225	0xba7d8264	-0.0009670614
226	0xba17049b	-0.0005760879
227	0x39d82584	0.00041226682
228	0xba86dd33	-0.0010289311
229	0xb843bf57	-4.6669822e-05
230	0x39b83f87	0.00035142546
231	0xba5ac26e	-0.00083450123
232	0x392ea99d	0.00016657119
233	0x39053c05	0.00012706227
234	0x3b0ee832	0.002180588
235	0xba136646	-0.0005622845
236	0x39cb68f4	0.00038797373
237	0xb9a1f853	-0.0003089333
238	0xb99fd67a	-0.0003048664
239	0x3888188b	6.489557e-05
240	0x3a2f3468	0.00066835294
241	0xba498217	-0.00076869264
242	0xba13e1ef	-0.0005641272
243	0x3952cc54	0.00020103279
244	0x39b77199	0.00034989117
245	0x392a5419	0.00016243792
246	0xba0ed688	-0.0005448838
247	0xb9d6111e	-0.00040830014
248	0x3a261f1a	0.0006337032
249	0xb8af7bf3	-8.3677376e-05
250	0x37d858e3	2.5790598e-05
251	0xba17142e	-0.00057632
252	0x39248321	0.00015689108
253	0xb9c595d8	-0.0003768641
254	0x3a9bd48a	0.0011888903
255	0xb8d74ecd	-0.00010266677

exp_avg_sq f4 [512, 20]
0	0x367cdf90	3.7681057e-06
1	0x36fe88fb	7.5857365e-06
2	0x35dd0b5c	1.6469089e-06
3	0x351f9c56	5.9459614e-07
4	0x3589ac6f	1.025748e-06
5	0x375e6111	1.3254831e-05
6	0x3523042a	6.072829e-07
7	0x37150b18	8.883675e-06
8	0x364d9264	3.063259e-06
9	0x370156fc	7.709252e-06
10	0x35225ef0	6.0487855e-07
11	0x37442ec7	1.1693402e-05
12	0x36e619db	6.857544e-06
13	0x36699855	3.4808374e-06
14	0x367565a1	3.6567e-06
15	0x369dfb2a	4.708204e-06
16	0x3683a02e	3.9227516e-06
17	0x36891883	4.0857717e-06
18	0x3501e24d	4.8385556e-07
19	0x363532ec	2.7000742e-06
20	0x36676139	3.4478273e-06
21	0x38133196	3.509371e-05
22	0x364a6a15	3.0162093e-06
23	0x367ea6bc	3.7946002e-06
24	0x36dab266	6.5176746e-06
25	0x366e98fe	3.5553817e-06
26	0x3645eaf7	2.9492055e-06
27	0x36356d0c	2.7034575e-06
28	0x367409fd	3.6364647e-06
29	0x36794f5f	3.7150091e-06
30	0x35810ee8	9.615587e-07
31	0x3619e735	2.2933357e-06
32	0x3620371a	2.3873931e-06
33	0x35c90138	1.4976022e-06
34	0x36ffed04	7.6271845e-06
35	0x37315496	1.0569716e-05
36	0x35dba560	1.6364902e-06
37	0x35c1eda5	1.4448784e-06
38	0x35cbaab5	1.5174361e-06
39	0x363e0b73	2.831887e-06
40	0x371488b5	8.853317e-06
41	0x36f32415	7.246165e-06
42	0x36cccb0c	6.1033115e-06
43	0x368cbfa3	4.1946346e-06
44	0x37086f0d	8.132088e-06
45	0x379d0844	1.8719707e-05
46	0x35943418	1.104202e-06
47	0x36b8ef42	5.5114806e-06
48	0x3705e023	7.979604e-06
49	0x35a3e519	1.2211123e-06
50	0x35182ad4	5.6686736e-07
51	0x367e5b85	3.790222e-06
52	0x3687de7b	4.0492137e-06
53	0x35e4772b	1.7022006e-06
54	0x36fd1795	7.542733e-06
55	0x36892689	4.0874042e-06
56	0x369ef547	4.737321e-06
57	0x36b73797	5.4602965e-06
58	0x30f78a35	1.8010896e-09
59	0x361d9640	2.348228e-06
60	0x3687af6e	4.043736e-06
61	0x361878ed	2.2720153e-06
62	0x35bba69c	1.3981075e-06
63	0x373ea2f3	1.1362822e-05
64	0x35a86758	1.2547052e-06
65	0x36cb914f	6.0667876e-06
66	0x35437f7e	7.2828686e-07
67	0x3665683a	3.4184327e-06
68	0x36048559	1.9747151e-06
69	0x36f63fce	7.338799e-06
70	0x34c4e8ea	3.6677312e-07
71	0x36b54c0a	5.4030725e-06
72	0x36d2f977	6.2875292e-06
73	0x357fa497	9.523441e-07
74	0x36b593dc	5.4114334e-06
75	0x3607fa2b	2.0262185e-06
76	0x361c6d55	2.330945e-06
77	0x36ada9f9	5.175589e-06
78	0x35a91b15	1.2599363e-06
79	0x3683fc2c	3.933461e-06
80	0x36ddcf9f	6.6104835e-06
81	0x363a2272	2.773621e-06
82	0x357dffbf	9.4622004e-07
83	0x365f0c81	3.3236868e-06
84	0x3631caaa	2.6493021e-06
85	0x3713e8a0	8.816045e-06
86	0x35737c41	9.070537e-07
87	0x3682128e	3.876462e-06
88	0x37088fdb	8.139726e-06
89	0x3650bd96	3.1104769e-06
90	0x34f928a8	4.6409446e-07
91	0x3642dbfd	2.9036303e-06
92	0x36082f9a	2.0293287e-06
93	0x36634906	3.3868141e-06
94	0x36afc72b	5.2385926e-06
95	0x3684a620	3.953246e-06
96	0x36522dfa	3.13192e-06
97	0x367bb90e	3.750963e-06
98	0x3583f527	9.831609e-07
99	0x36076995	2.0178024e-06
100	0x364a3b79	3.0134963e-06
101	0x38082284	3.2457072e-05
102	0x3614a920	2.2152162e-06
103	0x369f883f	4.7544304e-06
104	0x36221ddc	2.4157262e-06
105	0x375050c0	1.2416567e-05
106	0x35d488d9	1.5835059e-06
107	0x368824a7	4.0573827e-06
108	0x36f41dc5	7.2752323e-06
109	0x371bd95b	9.289327e-06
110	0x33f496ec	1.1389588e-07
111	0x36c84e85	5.9696054e-06
112	0x36087f5c	2.0339712e-06
113	0x35d2997f	1.5690892e-06
114	0x35dd0edc	1.6470108e-06
115	0x36cf43df	6.176982e-06
116	0x3615d8db	2.2328957e-06
117	0x36954a91	4.4492267e-06
118	0x368ede7a	4.2578295e-06
119	0x36a5ee85	4.9451505e-06
120	0x36b7258b	5.4581956e-06
121	0x3682820c	3.8894414e-06
122	0x35a46218	1.2247501e-06
123	0x35fc318b	1.8789882e-06
124	0x368f0254	4.262003e-06
125	0x372787b6	9.985573e-06
126	0x3655b018	3.1841973e-06
127	0x365249c8	3.1335385e-06
128	0x36aeda78	5.211037e-06
129	0x36468cc7	2.9586242e-06
130	0x355f2552	8.312828e-07
131	0x369877af	4.543886e-06
132	0x338ed54d	6.6511895e-08
133	0x35b8261c	1.372016e-06
134	0x35fe6fa6	1.8956969e-06
135	0x35ca88f4	1.5090031e-06
136	0x35cc42f5	1.5218671e-06
137	0x3688dd79	4.0788987e-06
138	0x35312073	6.598486e-07
139	0x3572bd3e	9.042741e-07
140	0x37360d84	1.0851192e-05
141	0x36cc8a5e	6.095782e-06
142	0x351f8e88	5.9439526e-07
143	0x35a3a39e	1.2192065e-06
144	0x3586102f	9.988488e-07
145	0x366a7b46	3.4940472e-06
146	0x358635f7	9.999484e-07
147	0x3611fb70	2.175304e-06
148	0x36c59a8c	5.889049e-06
149	0x35cac98d	1.5108832e-06
150	0x35e7709b	1.7243614e-06
151	0x354d2ceb	7.6433815e-07
152	0x35864f68	1.0006888e-06
153	0x36c6c944	5.9242902e-06
154	0x369ada60	4.61498e-06
155	0x36166bfe	2.2414602e-06
156	0x365fa8de	3.3327883e-06
157	0x362e0ad2	2.5934319e-06
158	0x36232828	2.4312267e-06
159	0x3504d257	4.9479917e-07
160	0x3603eb2f	1.9657416e-06
161	0x37231dff	9.722541e-06
162	0x35d2f1b9	1.571657e-06
163	0x32a3117d	1.898365e-08
164	0x36a1dd89	4.823964e-06
165	0x3673bab2	3.6318493e-06
166	0x35ea8895	1.7474109e-06
167	0x36e8d5c2	6.9390235e-06
168	0x36b67181	5.4372363e-06
169	0x36cdc932	6.1328983e-06
170	0x35b98e51	1.3824994e-06
171	0x3603efb6	1.9660051e-06
172	0x37374f13	1.0926061e-05
173	0x347fb4c0	2.3814482e-07
174	0x368e4ea0	4.241083e-06
175	0x370f96cc	8.558574e-06
176	0x349ae273	2.88495e-07
177	0x362abf23	2.544323e-06
178	0x358abb71	1.0336354e-06
179	0x35a0b94e	1.197486e-06
180	0x37086eaa	8.131998e-06
181	0x3613dc98	2.203311e-06
182	0x3620f650	2.398523e-06
183	0x344fbc35	1.9346847e-07
184	0x3609daaf	2.0541881e-06
185	0x36656946	3.4184936e-06
186	0x3524357d	6.1172597e-07
187	0x3582b992	9.739763e-07
188	0x36869b7a	4.011611e-06
189	0x360bc55d	2.0827495e-06
190	0x352a3f72	6.342226e-07
191	0x36374db7	2.731436e-06
192	0x35e47d92	1.702387e-06
193	0x3688c8dd	4.0764994e-06
194	0x36617235	3.359409e-06
195	0x3676e75a	3.679152e-06
196	0x369bca17	4.6428863e-06
197	0x364b16d6	3.026265e-06
198	0x360347fe	1.9562426e-06
199	0x3572d6fb	9.0464863e-07
200	0x36eb79ab	7.01771e-06
201	0x35a68715	1.2407278e-06
202	0x3634722c	2.6888547e-06
203	0x3586862e	1.0022829e-06
204	0x36703c42	3.5797862e-06
205	0x370e77ef	8.491784e-06
206	0x352d3ef8	6.4539154e-07
207	0x354e2f77	7.681005e-07
208	0x35dddc94	1.652998e-06
209	0x3669b4ee	3.482502e-06
210	0x36031660	1.9533545e-06
211	0x36e9f460	6.97239e-06
212	0x364fe7cd	3.098033e-06
213	0x35ef2bbc	1.7819616e-06
214	0x3699cdbb	4.5837055e-06
215	0x35e5579d	1.7087328e-06
216	0x36cfdcce	6.194786e-06
217	0x36d3eb73	6.3157e-06
218	0x35c27043	1.4486799e-06
219	0x3441e3e8	1.8057438e-07
220	0x36291755	2.5196543e-06
221	0x3814c56e	3.546982e-05
222	0x35fc316c	1.8789847e-06
223	0x367b2429	3.7422963e-06
224	0x3621f3ac	2.4132705e-06
225	0x372ddea5	1.0363442e-05
226	0x3637a3cc	2.7364467e-06
227	0x3622ed8e	2.4278156e-06
228	0x36aab102	5.087001e-06
229	0x36c13a2c	5.7586203e-06
230	0x355a6040	8.135139e-07
231	0x3697dd2a	4.5258976e-06
232	0x36130c87	2.1911999e-06
233	0x35c899ec	1.4945958e-06
234	0x3710072d	8.58474e-06
235	0x36c6dcf3	5.9265817e-06
236	0x361c06a4	2.3249677e-06
237	0x367eed69	3.798714e-06
238	0x35e0082f	1.6691682e-06
239	0x35e1e66e	1.683087e-06
240	0x36efe718	7.149658e-06
241	0x36d3bd6a	6.3103407e-06
242	0x3646c61b	2.9619612e-06
243	0x3603564b	1.957075e-06
244	0x367af2eb	3.73943e-06
245	0x37a9cf41	2.024288e-05
246	0x361b299e	2.3121024e-06
247	0x369fa587	4.757839e-06
248	0x3776943e	1.4697258e-05
249	0x36a77194	4.99021e-06
250	0x35d1e403	1.5638074e-06
251	0x36946542	4.4225317e-06
252	0x3683c58d	3.927102e-06
253	0x36b801b2	5.4838247e-06
254	0x36f6f246	7.3595756e-06
255	0x36ad8552	5.1713223e-06
