checkpoint.pt (torch, 959970 bytes, 18 tensors)

lstm.weight_ih_l0 f4 [512, 20]
00000000: b606 c0bf 9315 4d3e bf62 eebd ab1b 1d40
00000010: 3bc5 ec3f 536d 82bf 79b8 52bd d93b 9bbe
00000020: 5da2 6dbf bd9a e1bd 1fd1 8d3f 8098 063f
00000030: dba5 a7bf 8c28 103f b24d 53bf b4ee 143f
00000040: 057e e13e 0e37 25bf 230d 963f fecb b43f
00000050: 8c65 83bf 2d78 3a3e fa2e 00be 7a68 323f
00000060: fcab 7f3d 1915 82bf 2d18 333f 7cc7 f3bd
00000070: ff14 21bf a543 10bf f757 ef3e 95c2 14bf
00000080: cb98 c33d b3fd d23f f6f1 9bbe 2fca cc3e
00000090: e72d cdbf e83b 87bf 1819 7e3f a938 1a3f
000000a0: 025a b8be 588a 8d3e 4e95 c63e c4b4 183f
000000b0: 516f 5b3f 5543 1f3f 65bb a23d e035 dfbe
000000c0: 9b9a 02bf e25b 16c0 0cc9 2b3f 11ba 783f
000000d0: c5d3 56bf f523 36bf 14d9 8fbe 17ef 98bf
000000e0: ecf0 a4be 0161 ee3e ef16 5bc0 3877 d93e
000000f0: d389 cebd 4a01 563e 8d19 2c3e 1272 ea3e
00000100: 964c c0bd 7be3 01bf 985e b9bd 9ec4 aa3e
00000110: d145 89bf 5d82 d83d bdc3 85bf bee3 843e
00000120: 648b 42bd e023 b4bf a861 12bf 41b9 333f
00000130: 10f6 8ebd 1ac9 d3bb 5e6a 633f 8cd8 7d3f
00000140: ef38 613e 70e7 f1be e434 cdbf 82af ad3f
00000150: c805 173f a40f a0be e16f acbf 79ba c2be
00000160: 25a2 95be da80 a1bf a4e1 06bf 4d15 953f
00000170: 5094 0dbf 1f67 dbbd 4bf8 e53d 8e43 aabf
00000180: c423 963f 4a1d 273f ae7c 1d3f 41b3 b63e
00000190: d11f 8dbd af02 8e3e a769 e93e c596 9d3d
000001a0: 637c 20be 2090 c1bf 5764 1640 bf28 723e
000001b0: f203 17be 5e3d 2ebe ee9f 4740 5e63 d73e
000001c0: 4bee 403e e1e1 8ebe f880 b8be 0f8e 81be
000001d0: 3795 85bf 26fd 22bf 0ce7 51be d51c 553f
000001e0: 914a 16bf b40c e4be 2a56 74bf 2c32 96bf
000001f0: a730 35bf 92b1 013f 721e 3abb 2a72 a63f
00000200: ec97 4b3f 11c8 503e 74b8 713f 7d83 a53e
00000210: e123 26c0 4eca 99bf 71a5 113f cbb5 96bf
00000220: 85f3 dc3d e843 c33e a76f 343e 9f75 8bbf
00000230: f686 a53e 66cc b03e 6d7c 0bbd a656 95bf
00000240: d63d 44bf 347b f9be b03d a73f e900 043f
00000250: fcd5 77bf f45b 38bf 0370 1f3f ebaa 4bbf
00000260: 1e6d debe dbf3 643e 71b1 ffbe 4c53 93bf
00000270: 1f17 303f 60b5 3d3f c6cd 223f 72f4 6a3c
00000280: 83cb 04be 95e6 87bf 2599 0dbf 866b 46c0
00000290: 9ae5 cb3e 18bb 09bd 7917 c93d 6956 ef3e
000002a0: 1bbc 1b3d 71e3 513e 3e2c 9e3f 4a31 c6bf
000002b0: 3ba9 353e 5cd7 2ec0 8fab c43e d235 5c3f
000002c0: 6f09 b3bf 16ad 92be dc4f 8a3e df3f 8ebe
000002d0: c907 13bd 4cf3 92bf ee06 143f 5276 14c0
000002e0: 1c8f e63e 6ee6 0abf f07d 34bc 2e98 d7bf
000002f0: 9294 063f 92a9 47bf 1b29 dcbe 5bd4 d83e
00000300: 0780 af3e f192 acbc d26f 0c3f 8813 bc3e
00000310: 26de 163f 1361 88bf 1f57 8f3f 13ed 793e
00000320: f985 013e 3c1c a4bf a346 083f d85e 71bf
00000330: d2b4 4cbe e7f1 58be c6b3 93bf 15fb dabf
00000340: 240c ed3f 2cbb 67be 6a4d 253f ddc7 423e
00000350: 8253 9dbf a6a8 46be 3153 843f f55c 89bf
00000360: 9bcd 2b3f 8f56 783f 29bb a33e 3f9f dcbe
00000370: 9f68 79bf 5999 543e 8f94 ebbd bbb1 0640
00000380: 4dee fa3c 7c14 7abe 2cb5 053f 9075 12bf
00000390: fc48 76bf 7b7f 46bf 9732 9abf 3eea a43d
000003a0: 8ad3 3fbf 5f91 353e cc03 d7be 5651 003f
000003b0: 7816 a23f 96f9 a43e 3c2b 0e3e d81e c63e
000003c0: aede 5d3c 8163 abbd 7c46 76bd d530 753f
000003d0: 0dbc 5d3d 7dd1 883f 5956 f7be 314f dbbe
000003e0: 91a3 82be 4962 71bf 026b b5be 1c11 01be
000003f0: 059b 4d3f d97d 19bf 2a32 8f3e 29aa 763f
-1.5002048 0.20027761 -0.11639928 2.4548137 1.849769 -1.0189613 -0.051445458 -0.30319098
-0.9282587 -0.11015842 1.1079444 0.52576447 -1.309749 0.5631187 -0.8254043 0.5817673
0.44041458 -0.6453713 1.1722759 1.4124753 -1.0265365 0.18209906 -0.1251792 0.6969067
0.062419876 -1.0162688 0.69958764 -0.11903283 -0.6292266 -0.5635322 0.467468 -0.5810941
0.09550627 1.6483673 -0.3045804 0.39998004 -1.6029633 -1.0565157 0.9925704 0.60242707
-0.3600617 0.2764461 0.38785785 0.59650826 0.8571673 0.62212116 0.07945899 -0.4359579
-0.5101716 -2.349358 0.6710365 0.97158915 -0.83916885 -0.71148616 -0.28095305 -1.1947964
-0.3221506 0.46558383 -3.4232748 0.4247377 -0.10084882 0.20898929 0.16806622 0.45790154
-0.093896076 -0.5073773 -0.090512455 0.33353132 -1.0724431 0.1057174 -1.045036 0.25955003
-0.047496215 -1.4073448 -0.5718026 0.7020455 -0.069805264 -0.006463182 0.8883418 0.9915855
0.21994375 -0.47246885 -1.6031766 1.3569186 0.58993196 -0.31261933 -1.3471643 -0.38032892
-0.2922527 -1.2617447 -0.5268805 1.1647125 -0.5530443 -0.10713028 0.11228999 -1.3301866
1.1729665 0.65279067 0.6151837 0.35683635 -0.06890834 0.27736422 0.4558842 0.07694773
-0.1567245 -1.5122108 2.3498743 0.23648356 -0.14747599 -0.17015597 3.1191363 0.42068
0.18840902 -0.27906707 -0.36035895 -0.25303695 -1.0436162 -0.63667524 -0.20498294 0.8324712
-0.5870753 -0.44540942 -0.95443976 -1.1734061 -0.7077736 0.50661576 -0.0028399494 1.300359
0.7952869 0.2038882 0.9442208 0.3232688 -2.5959399 -1.2014863 0.5689307 -1.1774229
0.10788635 0.38137746 0.17620717 -1.089527 0.3232953 0.34530944 -0.03405421 -1.1667068
-0.76656854 -0.4872681 1.30657 0.5156389 -0.9681089 -0.7201531 0.6228029 -0.79557675
-0.43442625 0.22358648 -0.49940065 -1.1509795 0.6878528 0.7410488 0.63595235 0.014340507
-0.12968259 -1.0617243 -0.55311805 -3.1003127 0.3982361 -0.033625692 0.0981893 0.46745613
0.03802119 0.20496918 1.2357252 -1.5483792 0.17740338 -2.7318945 0.3841214 0.86019623
-1.3987254 -0.2864768 0.27014053 -0.27783105 -0.035896096 -1.1480498 0.57823074 -2.3197217
0.4503106 -0.5425786 -0.011016354 -1.6843317 0.5257045 -0.7799312 -0.4300011 0.42349514
0.34277365 -0.02106616 0.54858124 0.3673365 0.5893272 -1.0654625 1.1198462 0.24406843
0.12648763 -1.2821116 0.53232783 -0.94285345 -0.19990852 -0.21186028 -1.1539237 -1.7107874
1.851933 -0.22629994 0.6457125 0.19021554 -1.229111 -0.19400272 1.0337888 -1.0731493
0.67110604 0.9700708 0.3197873 -0.43090245 -0.97425264 0.20761622 -0.11502945 2.1045978
0.030631209 -0.24421877 0.5222957 -0.57210636 -0.96205115 -0.7753827 -1.2046689 0.08052491
-0.7493216 0.17731236 -0.41995084 0.5012411 1.2663107 0.3222167 0.1388368 0.38695407
0.0135418605 -0.08368588 -0.060125813 0.95777637 0.054134417 1.0688931 -0.48308066 -0.42833856
-0.25515416 -0.94290596 -0.35433203 -0.12604183 0.80314666 -0.59957653 0.2796796 0.96353394

lstm.weight_hh_l0 f4 [512, 128]
00000000: c031 a0be ec95 8abe db96 64bf bf9a ef3e
00000010: 7d4a 09bf cc8b ce3d 45a2 08be e856 78bf
00000020: 54c3 2b3f 0a2f 213d e0fa 8cbe 894c 5b3e
00000030: 3f52 7cbf 54d6 f1be ddbb 7f3f a500 0c3f
00000040: e4f2 1c3f 2e93 e53e fa16 d5bd c47c 2e3f
00000050: eb17 873e 42d1 553f ad59 1cbf bae1 d23e
00000060: 6dfb 17be 7b33 cf3e 9488 2c3e 4138 06bf
00000070: 1c18 5bbd c593 eb3e 9b03 18bf d1df c1be
00000080: d1ba f03e cb12 62bd 011e 8d3e 5bb7 753e
00000090: aa77 4d3e 728e ddbe 7aa0 75be d6e0 1d3f
000000a0: 4c86 f13e 01b5 b6be 41aa 193e e4c2 a03e
000000b0: 88f0 ed3e 75e5 46bd eb24 77bf f570 b3be
000000c0: 4ded f0be 51a7 4b3e 60ab 20ba 17f6 5a3d
000000d0: f062 f43d a201 963c 313f e8be 3a49 193f
000000e0: 9c5b c13e cf7c 01be df23 3f3f a4ee 9dbd
000000f0: 4e8a e6bc 47cf c5be 5963 843f 281f 67bf
00000100: b644 093e d210 183e 6b76 023f 179b 0c3e
00000110: 4589 19be 4833 1abd 13d3 44bf 03a2 5ebb
00000120: 5fb6 1a3f 1745 9f3f 7fd5 ca3e 4772 2fbf
00000130: 7c74 853d e7cf 62bf 8bbe d83d 59da 033f
00000140: 4543 e0be 24a2 573f 8d92 393e 4213 25be
00000150: 5a62 033f fba8 263d 5b4d 133f 3f33 e0be
00000160: 0a69 ebbe c49a 803e a36b b63e 48e5 e4be
00000170: eb99 44be 5f51 59bf 8afa a13f 6ca0 34bf
00000180: 33b6 63bf a6c2 fb3e e4a2 39bf da4f a43b
00000190: 260a 6bbf 232d 583e fa48 5d3e 3bb5 8abe
000001a0: c8ec 9dbc 6483 123f ee5d 0f3e 29d8 a0be
000001b0: 38da 71bf e9df f53e 62de c83d bd15 253e
000001c0: fc3a 683d 31f7 803e 0b10 80bf feba 3e3f
000001d0: de56 603f 3b87 7a3d b645 1cbf 965b 9d3c
000001e0: c8da 35bf d684 a9bd a7f5 063e 5bc7 673f
000001f0: cdc7 12be 4fe4 043f 9d0d 033f 851b 483f
00000200: 586a 3cbd 5478 21bf ef9b 083f 4130 a43d
00000210: e8b1 0a3f 8a2d d0be ec4f 763e bd95 86bf
00000220: 9d92 eb3e eb99 b23e 8720 573f 1e0d 3bbe
00000230: 6bac 073f 1bb2 ecbe bd34 883d 212a 01bf
00000240: 25ad bcbf 3ca0 c6bf c0cb 58bf bbf8 843f
00000250: 4eaa 58be 38e4 f6be d4fa 1f3e bf3d b93e
00000260: dc1f 7c3f f831 a93e 2f1d c93f d19e 3bbe
00000270: 85ef 343f c8df 4b3e 2e11 e3bd 5ca3 0fbf
00000280: a7d0 16be 20da f63e b6eb 42be fc15 a83d
00000290: f8c3 0ebe 079c c03f c39f 73bd 6853 55bf
000002a0: 9651 033e b7d4 42bf 7f35 ca3e 0475 3ebf
000002b0: 5642 fb3e 9d5d ccbe fa13 0e3e 130a b8bc
000002c0: 7536 80bd 45cb a93e 55d3 87bf 6007 3b3e
000002d0: 2ece 773e 3ed4 b9be 1e66 9fbe c8a5 963f
000002e0: bd7e dfbe 7a5f cd3e ae43 43be acdc 11be
000002f0: 2b1e a5be d950 613f c84d c7be 95c0 13be
00000300: c477 94bd b52f 9f3e f2be 063f 3c48 05be
00000310: a249 adbc 5db9 6e3d 7d45 07be 5393 613e
00000320: 978e 2f3f bec5 c53e 9a82 05be 496f ee3e
00000330: ede2 1abe f527 3d3d 08e2 323f d31e acbe
00000340: fc8b c43b ba88 6fbf 3769 29bf 96af 493f
00000350: 1c3a a43d 104e b93e 6945 703e d4c9 823f
00000360: 5025 a53f 04e9 cabe 2ab9 2dbf 41e8 10be
00000370: 0ffe f93e 23c6 52be 1ba1 8d3f 44d7 293f
00000380: 3cec 863e 57c6 843e 0ceb 13bf 1f51 fd3e
00000390: 3661 f1be 3a84 5e3f 0a04 683e 0fa9 393e
000003a0: e7e4 b3be 5fc1 afbe 7457 90be 1972 27be
000003b0: 878e a5be 8608 27bf ab62 2f3f ab41 473d
000003c0: 6ec5 0abe d27b bcbe 60c1 70be 1b9e 2cbf
000003d0: 5b3e 083f 1021 913e 7e4a f53e 799d a33e
000003e0: 427c 9e3e b302 78be 526a af3e 68ca 543e
000003f0: 0645 923e 45d0 0d3f 8a28 423f f1a0 b0be
-0.31287956 -0.27067506 -0.8929269 0.4679775 -0.53629285 0.10085258 -0.13343151 -0.9700761
0.6709492 0.0393515 -0.27535152 0.21415915 -0.98563 -0.47233832 0.9989603 0.54688483
0.6130812 0.44838852 -0.10404773 0.6815913 0.26385435 0.8352243 -0.61074334 0.4118784
-0.14842005 0.40468964 0.16848975 -0.52429587 -0.05348979 0.46011177 -0.593805 -0.3786607
0.4701753 -0.055193704 0.27561954 0.23995726 0.2006518 -0.4327274 -0.23986998 0.616712
0.47172773 -0.3568497 0.15006353 0.3139869 0.46472573 -0.04855867 -0.9654071 -0.35047117
-0.47056046 0.19888045 -0.00061290525 0.053457346 0.11932933 0.018311325 -0.4536071 0.5987736
0.37765205 -0.12645267 0.7466411 -0.07711533 -0.02814212 -0.38634703 1.0342818 -0.90281916
0.13405117 0.14850166 0.5096194 0.13731037 -0.1499377 -0.03764656 -0.76884574 -0.0033971078
0.60434526 1.244296 0.3961601 -0.6853375 0.06516358 -0.88598484 0.10583218 0.5150505
-0.43801323 0.8423178 0.18122311 -0.16120628 0.5132195 0.040688496 0.5753991 -0.43789098
-0.45978576 0.25118077 0.35628995 -0.44706178 -0.1919934 -0.8488979 1.2654583 -0.70557284
-0.8894989 0.49171942 -0.72514176 0.005014402 -0.9181236 0.21110968 0.2160987 -0.27091393
-0.019277945 0.57231736 0.14000675 -0.31414917 -0.944736 0.48022392 0.09808041 0.16121574
0.056696877 0.25188592 -1.0004896 0.7450408 0.8763255 0.061164122 -0.6104387 0.01920871
-0.7103696 -0.082772896 0.13179646 0.9053857 -0.1433403 0.5191087 0.5119265 0.7816699
-0.045999855 -0.6307423 0.53362936 0.08017016 0.54177713 -0.40659744 0.24053925 -1.0514446
0.46010295 0.34883055 0.8403401 -0.18266723 0.52997464 -0.46229634 0.06650684 -0.5045491
-1.474034 -1.551765 -0.846859 1.0388407 -0.21158716 -0.48220992 0.15623027 0.3617992
0.98486114 0.33045936 1.5712031 -0.18322302 0.7067798 0.19909585 -0.11087261 -0.5610864
-0.14728032 0.4821329 -0.19035229 0.08207318 -0.13941944 1.5047616 -0.059478533 -0.8333039
0.12824091 -0.7610583 0.3949394 -0.743973 0.49074048 -0.3991517 0.13874808 -0.022465741
-0.06260387 0.33162895 -1.0611368 0.18264532 0.24199745 -0.3629474 -0.31132597 1.1769342
-0.4365138 0.40111905 -0.19068787 -0.14244336 -0.3224958 0.8801399 -0.3892653 -0.14428933
-0.07249406 0.31091085 0.5263511 -0.13015836 -0.021153275 0.058282245 -0.13210101 0.22028856
0.6857695 0.38627428 -0.13038102 0.4656928 -0.15125628 0.046180684 0.69876146 -0.33617267
0.0059981328 -0.93568003 -0.6617617 0.7878355 0.08018896 0.3619237 0.23463978 1.0217843
1.2902012 -0.39630902 -0.6786066 -0.14151098 0.48826644 -0.20583396 1.106479 0.66344094
0.26352108 0.2593257 -0.5778053 0.49475953 -0.4714448 0.8692051 0.22657791 0.18130897
-0.35135576 -0.34327218 -0.2819172 -0.16352119 -0.32335302 -0.6524738 0.6850993 0.04864661
-0.13551876 -0.36813217 -0.23511267 -0.6742875 0.53220147 0.28345537 0.47908396 0.3195608
0.30954176 -0.2421978 0.34260803 0.20780337 0.28568286 0.5539592 0.7584311 -0.3449779

lstm.bias_ih_l0 f4 [512]
00000000: 3a44 2abd 8cc7 11bf 424c a4be 92c0 d0be
00000010: ba37 04bf c0b4 10be 4193 bfbe e1c2 19bf
00000020: 36f5 b3be 84e1 aebe 8801 b4be 2b4e 3bbe
00000030: 9dce 4abe d36c 2abf 1024 14be f055 95be
00000040: 3238 0fbe 362d 5cbe 8469 11bf d26b 04be
00000050: 232b 8cbd 3ecb d1be 68f8 aebe 7ca9 15bf
00000060: ad21 b1be 36c3 b8be aa91 c5be b577 cabe
00000070: 0a4a 0cbf c778 58be a652 9abd 5b0b 80be
00000080: 9774 8cbe d000 a7be 9f96 12bf 33b4 0ebe
00000090: df58 57be 7f76 aabe 17fc 91bd c548 92be
000000a0: 4576 9fbe f10d c8be ff41 ccbe d696 f5be
000000b0: e1dd 74be 7941 e0bd 5d51 7ebe ae01 e8be
000000c0: 959d 40be df9b 01bf 6d23 65be 2314 09bf
000000d0: da2c 83bd c28b f2be 32d4 5cbe ced0 6c3d
000000e0: f8c7 00bf 8cdc fcbe c994 ecbe 5646 acbe
000000f0: 2d19 99bc b31c 06bf 5562 9cbe eaa5 01bf
00000100: 1e7e b7be c01b 84be 8018 06bf 425e 9fbe
00000110: b8f9 0abf cc5d b2be 4527 01bf f40c 8ebe
00000120: f725 07bf dd2f b8be 317c 63be 2425 c0be
00000130: 8d7e 0dbf 05a1 b6be 2276 c7be 13c5 23bf
00000140: 5dc4 cbbe f0dd d7bd 1a82 b9be 0e8c 09bf
00000150: 1350 47be 4359 09bd e4a2 a6be 7946 d1be
00000160: 946b 8dbe 93f6 9cbe 4a68 f1be 3bbc 91be
00000170: b0a0 f3be 6977 d1be e32a b4be 4e43 e4be
00000180: 5a38 6ebe 4156 d1be f29b a8be e7dc 86be
00000190: 349d 59be 7d5a 07bf 14ad 9cbe e0fa 01bf
000001a0: c343 dabe aa28 cebe 71b5 27bf 7cc7 85be
000001b0: d9bd cbbe 7ba7 ccbe bdc1 0dbf 3c39 debe
000001c0: 9ee4 21be 5f17 d6be fc45 3ebe 3eba 87be
000001d0: 42c8 fcbe 1913 dbbe 42ef 8cbe 1f12 fabe
000001e0: 40b6 bfbe b8f5 bdbe 3c47 15bf cebd 2abe
000001f0: 7604 c23d 041f 03bf be98 f9bd c3cf b8be
00000200: 15b7 02bf bdfe 33bd 744f 9abe 6299 e4bd
00000210: bdf2 a1bd 8594 26bf 86a6 97be 9cd6 943e
00000220: 7f59 33be 6789 31bd 5b80 68be e6a9 25be
00000230: e7be 81be f19a 323e 59ca 2ebf 49ff 77be
00000240: 583f d03a ae8f c4be b9fc c03e 7876 8cbc
00000250: 74f3 ebbe d8dd 6cbe 2fac 78be 2ead 393e
00000260: 7e11 1fbe 964b 83be 98b3 abbd 2b58 fcbd
00000270: 56ab e3be d19a 01bf 109b e5be 2c23 eebe
00000280: eced 9bbe 4e15 773e da9d a6be 02aa 03bf
00000290: 2fa4 54be 408d 06be c85f 05bf 846c e2bc
000002a0: 3884 a43d 48be 89be 0329 62be e8ed 40be
000002b0: 04a1 6cbe 61c3 643d 2aeb 3fbe d59a e43d
000002c0: 8a75 e1be a1e9 dfbd 1223 f5be b72d e73d
000002d0: c27c abbe 04be 26be 4c43 06bf ce9c 3fbf
000002e0: 52b8 773d a778 82be aeeb 9bbe 3778 03be
000002f0: 58bf a2be ab2e 47be 5589 863d 47b2 203e
00000300: f8fa 773e e811 8ebe f80e 36bd 8f99 82be
00000310: 4c70 67be e1ac e9be a3d1 e63c e030 f7be
00000320: e989 93be cf53 90bd e6da 4dbd d25e 6cbe
00000330: 1e55 ebbe 233b aabe 8ce8 00bf 1180 1a3e
00000340: 2b15 02be 2b1b 45bf a01c 73be 23d5 aabd
00000350: 8591 64bd 9c3a 36bf eb9a f7be 9dfd f5be
00000360: 4246 e9be 0648 76be 6661 b4be 68fb 16be
00000370: 28fd 9bbe 0225 18bf acc4 bebd 7209 3cbe
00000380: 4b66 31bd 5167 debe 91d1 3dbe 5b2e 3b3c
00000390: 3f62 4fbe 1dba 383e d170 e2be e34c 9ebd
000003a0: 1b2d aebe cc80 cabd 8144 173e 4ed5 28be
000003b0: 533e 6f3c 2bce 7d3d d134 11bd 3908 74be
000003c0: 8045 a93d 0b7d 033f 3fd1 fbbe 5589 0cbf
000003d0: 5670 debe f51b 79be a8f0 efbe 323f 85bd
000003e0: 42e2 0f3c 53b4 f9bd 884c 17be 4d5d 00bf
000003f0: fa70 dcb9 78ea 753d 1c75 99be 03e7 bebe
-0.041568972 -0.5694511 -0.3208943 -0.4077192 -0.5164753 -0.1413145 -0.37417033 -0.60062987
-0.3514802 -0.3415643 -0.35157418 -0.18291537 -0.19805379 -0.665723 -0.14466882 -0.29167128
-0.1398628 -0.21501622 -0.5680163 -0.12931755 -0.06844165 -0.40975374 -0.34173894 -0.5846174
-0.34596005 -0.36086434 -0.38587695 -0.39544454 -0.54800475 -0.21139823 -0.07535295 -0.25008664
-0.274327 -0.32617807 -0.5726108 -0.13935928 -0.21029995 -0.3329353 -0.071281604 -0.28571144
-0.3114492 -0.39073136 -0.398941 -0.4796664 -0.23912765 -0.10949988 -0.24835725 -0.45313781
-0.18810113 -0.50628465 -0.22376795 -0.5354635 -0.06405039 -0.47372252 -0.21565321 0.05781632
-0.5030513 -0.49387014 -0.46207264 -0.33647412 -0.018688763 -0.5238754 -0.3054377 -0.5064379
-0.35838407 -0.25802422 -0.52381134 -0.311266 -0.5428729 -0.34837186 -0.50450546 -0.27744257
-0.52792305 -0.35974017 -0.22215344 -0.37528336 -0.55271226 -0.35669723 -0.38957316 -0.63972586
-0.3979825 -0.10540378 -0.36232072 -0.5372933 -0.1946414 -0.033532392 -0.3254615 -0.4087408
-0.27621138 -0.3065687 -0.4714988 -0.2846392 -0.47583532 -0.40911415 -0.3518897 -0.445826
-0.23263684 -0.4088612 -0.32931477 -0.2634041 -0.21251374 -0.5287245 -0.30600798 -0.5077343
-0.42629823 -0.402654 -0.6551123 -0.26128757 -0.3979328 -0.39971527 -0.55373746 -0.4340304
-0.15809867 -0.41814706 -0.18581384 -0.2650928 -0.49371535 -0.42788008 -0.2752629 -0.4884195
-0.37443733 -0.3710153 -0.5831182 -0.16673967 0.09473507 -0.512192 -0.121873364 -0.3609601
-0.5106061 -0.04394411 -0.30138743 -0.11162068 -0.07907627 -0.6507037 -0.29619235 0.29069984
-0.17514609 -0.043343928 -0.22705214 -0.16178092 -0.2534096 0.17441918 -0.6827751 -0.24218477
0.0015888019 -0.3839087 0.37692812 -0.017146334 -0.46084177 -0.23131502 -0.24284433 0.18132469
-0.15534016 -0.25643605 -0.08383864 -0.12321504 -0.44466656 -0.50626856 -0.44844866 -0.4651121
-0.30454957 0.24129221 -0.32542306 -0.51431286 -0.20765756 -0.1313982 -0.52099276 -0.027639635
0.08033031 -0.26902986 -0.22085957 -0.18840754 -0.23108298 0.05585039 -0.18742052 0.11162344
-0.44034988 -0.10933233 -0.4787832 0.11288016 -0.3349362 -0.16283423 -0.52446437 -0.7484864
0.060478516 -0.25482675 -0.30453247 -0.12838827 -0.3178661 -0.19451396 0.06569163 0.15693007
0.2421683 -0.27748036 -0.04444787 -0.2550778 -0.22601432 -0.4563971 0.028176134 -0.48279476
-0.28816155 -0.07047235 -0.050257586 -0.23083046 -0.45963377 -0.33248243 -0.5035484 0.15087916
-0.12703387 -0.7699458 -0.23741388 -0.08341434 -0.05580284 -0.7118318 -0.4836038 -0.48045054
-0.45561415 -0.24050912 -0.3523056 -0.14744341 -0.3046658 -0.5943147 -0.09314856 -0.18362978
-0.043310445 -0.434382 -0.18536974 0.011424626 -0.20252322 0.18039747 -0.44226697 -0.07729509
-0.34018788 -0.09887847 0.14772226 -0.1648762 0.014602262 0.061964195 -0.03545076 -0.23831262
0.08265209 0.51362675 -0.4918308 -0.5489705 -0.4344508 -0.24327071 -0.46863294 -0.06506194
0.008781971 -0.12192597 -0.14775288 -0.50142366 -0.00042045844 0.06003806 -0.2997216 -0.37285623

lstm.bias_hh_l0 f4 [512]
00000000: 1e6d 783b 76c6 28bf 1e67 bdbe ac94 9fbe
00000010: 3df1 e7be 491e c3bd 9d77 b8be 753c 23bf
00000020: 4241 d4be 6f1c e4be 30d8 cdbe 1465 81be
00000030: eacb 39be 7f6f 1dbf fe66 57be f296 7dbe
00000040: d8c7 aabd d253 37be 4e24 e1be 674d 2dbe
00000050: 78ec 62be 5e2a 00bf 68ce aabe b646 1bbf
00000060: 37e7 64be 33b9 6bbe 22bc aabe 4128 a2be
00000070: d2fb 2cbf 6b52 25be 5076 36bd 389d 7cbe
00000080: af63 b9be 8a48 b2be fea1 09bf 4030 d9bd
00000090: 3766 03be 9f92 aabe 9e78 8dbc c53d acbe
000000a0: afe4 a2be 59a3 b1be af67 b2be 9c51 d9be
000000b0: d7b9 81be 007a 19be 0f9e 8ebe 0f45 ffbe
000000c0: f1bb 1fbe 1553 02bf 4bec aabe 9f3d 0ebf
000000d0: 0069 53be 348a c2be 0fef 6bbe 0ada e53d
000000e0: c9d5 c4be bca7 bdbe 3c5b fcbe 9a3a b7be
000000f0: dd79 3d3b 35ba 17bf 63eb c4be c13e f8be
00000100: a482 bcbe 0d90 40be 40e0 01bf 5f15 44be
00000110: b21f debe 2e69 cfbe fc0e 0cbf 7b2c e7bd
00000120: 26ee 0abf b704 bcbe 104f 9ebe deb2 cebe
00000130: bd62 1bbf bdaa c6be 2a0d ccbe b3df 35bf
00000140: 73c1 9ebe 6ab4 593d 6d19 96be b4b1 f5be
00000150: eb2c 22be 2231 2dbd d790 5abe a704 adbe
00000160: 1c27 80be 61a7 8cbe 860d fabe 8b51 b5be
00000170: 9125 bfbe a5a5 9cbe eb8c ddbe 66f1 19bf
00000180: d59c 70be f8dd 02bf 1ee7 86be d181 d3be
00000190: 745f 4abe 9228 ffbe 9096 aebe 6092 dabe
000001a0: 3a29 02bf 16c6 e1be 9978 20bf 22e8 bebe
000001b0: f1a0 febe 570c c0be 133a 1dbf 5a15 aabe
000001c0: f252 90be 9117 c0be b610 43be 5a81 a6be
000001d0: 5ed0 ffbe 4dcf 92be 648c b5be 45d9 dcbe
000001e0: a286 a8be 366a c3be 58e4 17bf 08d8 dabd
000001f0: aeba 5bbd 31eb dbbe 4605 5dbd 45c1 82be
00000200: 5a71 dbbe 179a 853d d002 67be d4dd d9bd
00000210: 324e 55bd 9561 08bf a899 80be 8c81 bb3e
00000220: 58fe b9bd 9e39 ae3c db50 9ebe 0625 26be
00000230: f4ea 68be 4276 a13d d9c9 29bf 74f0 c7be
00000240: 80f6 213d 0e48 bbbe d3c7 943e 293c c8bd
00000250: f8f2 0bbf 3acb 2fbe cd4a 9dbe 9c86 873e
00000260: be24 fabd 1f2f 12be 0484 84bd 118d a0bc
00000270: 7a32 e8be 968a 19bf 5551 dfbe 08cb 01bf
00000280: 948f 98be aaac 7a3e 1aae b9be 59c9 efbe
00000290: 5962 49be 99f3 c0bd 6f8b fabe eae3 0cbb
000002a0: fabe bf3d 7460 84be 3583 0bbe 3af8 3dbe
000002b0: be9c a7be f585 f43c 2875 a2bd 0235 f33d
000002c0: 481a a3be d906 fabd 2c7e f4be 3095 0d3e
000002d0: d1c6 89be c686 53bd 0129 1abf 0a02 40bf
000002e0: 802b 2f3d 6dd2 66be 9d67 2fbe 91f9 24be
000002f0: e0ce aabe 5bb5 3fbe 03e4 f33d 6323 6f3e
00000300: 4641 343e 64a5 a6be b4f4 1dbe 1fd7 15be
00000310: 4aa9 5fbe ae52 e0be 3972 a03c 3f5a 01bf
00000320: 5f19 39be d791 c8bd 7235 a2bd 26af 10be
00000330: d697 e7be cf99 d5be 4a13 d3be bdf5 393e
00000340: f7c1 1fbe bf0f 2abf 200f 26be b14e 59be
00000350: 74b3 a63d fe8d 29bf 66dc 01bf b094 febe
00000360: b8ca e3be 921a 58be 4ef0 b2be b942 81bd
00000370: 2c19 9bbe 1071 17bf 08a9 92bd 02fe 1cbe
00000380: 5234 22be 8548 cfbe 5d52 18be a83e 5ebd
00000390: 5d08 0abe e9cc ed3c 23d8 f4be 3c53 11be
000003a0: a386 d1be 9b73 9abc f707 b63d 8cfb 93be
000003b0: 2df1 b73d e694 ae3d 67bf c43c bdd5 99be
000003c0: 9bcd 023e c2d3 b03e a3ab dfbe 0f18 e8be
000003d0: 2252 d2be 68d9 8abe a839 e3be 913a ea3c
000003e0: ce98 343d 273c 97bd 139f a1bd ff64 e6be
000003f0: 1dac da3b 4b5c 013e 2afc d0be 5d9c d5be
0.0037906836 -0.6592783 -0.36992735 -0.31168115 -0.45301238 -0.09527261 -0.36028758 -0.63764125
-0.41456038 -0.44552943 -0.40204 -0.2527243 -0.18144193 -0.61498255 -0.21035382 -0.24764612
-0.083388984 -0.17903069 -0.4397301 -0.16924058 -0.22160518 -0.5006465 -0.333606 -0.6065477
-0.22353826 -0.23019867 -0.3334666 -0.31671336 -0.6757175 -0.16144721 -0.044546425 -0.24669349
-0.36208865 -0.34820968 -0.53762805 -0.10604906 -0.1283196 -0.33314988 -0.017269429 -0.33640876
-0.31815097 -0.34694937 -0.3484473 -0.42445076 -0.25337097 -0.14987946 -0.27854964 -0.49857375
-0.15599038 -0.50908023 -0.33383402 -0.55562776 -0.20645523 -0.37996066 -0.23040412 0.11223228
-0.38444355 -0.37042034 -0.49288356 -0.35786897 0.0028911748 -0.59268504 -0.38460836 -0.48485377
-0.3681842 -0.18804951 -0.50732803 -0.19148777 -0.43383557 -0.40509933 -0.54710364 -0.11287781
-0.54269636 -0.36722347 -0.30919695 -0.4037084 -0.6069754 -0.38802138 -0.39853793 -0.7104446
-0.31006965 0.053150572 -0.29316273 -0.4798714 -0.15837447 -0.042283185 -0.21344315 -0.33792612
-0.25029838 -0.2747145 -0.48838443 -0.35413775 -0.37333348 -0.30595127 -0.43271574 -0.6013397
-0.23497327 -0.5111995 -0.26348203 -0.4130998 -0.19762975 -0.4983564 -0.34099245 -0.426898
-0.50844157 -0.4409644 -0.6268402 -0.37286478 -0.49732164 -0.37509415 -0.6141674 -0.33219415
-0.28188282 -0.3751798 -0.19049343 -0.32520562 -0.4996366 -0.28673783 -0.35458672 -0.43134513
-0.32915217 -0.3816697 -0.593328 -0.10685736 -0.05364483 -0.42952874 -0.053960107 -0.25538078
-0.42859918 0.06523531 -0.22559667 -0.106380135 -0.052076526 -0.532739 -0.2511723 0.36622274
-0.09081715 0.021267708 -0.30921063 -0.16225061 -0.22745878 0.07883884 -0.6632362 -0.3905064
0.03954172 -0.3657841 0.29058704 -0.097771 -0.54667616 -0.17167369 -0.3072113 0.26469886
-0.12214039 -0.14275788 -0.064704925 -0.019598516 -0.4535101 -0.5997709 -0.4361674 -0.50700426
-0.2979704 0.24479929 -0.3626564 -0.46833304 -0.19666423 -0.094214626 -0.48934504 -0.0021498152
0.09362598 -0.25854838 -0.1362427 -0.18551722 -0.32736772 0.029849032 -0.07932502 0.11875345
-0.31855989 -0.12208337 -0.47752512 0.13826442 -0.26909497 -0.0516422 -0.60218817 -0.7500311
0.042766094 -0.22541209 -0.17129369 -0.16110827 -0.33360958 -0.18721525 0.11908724 0.23353343
0.17603025 -0.32548058 -0.15425378 -0.14632843 -0.21841922 -0.4381308 0.019585716 -0.5052833
-0.18076085 -0.09793442 -0.0792035 -0.14129314 -0.4523303 -0.4171891 -0.41225654 0.18160148
-0.15601335 -0.66430277 -0.16216707 -0.21221425 0.08139697 -0.6623229 -0.50726926 -0.49722815
-0.444906 -0.21103886 -0.34948963 -0.063115545 -0.30292642 -0.59156895 -0.071611464 -0.15331271
-0.15840271 -0.40485016 -0.14875169 -0.054258972 -0.13479753 0.029028373 -0.4782115 -0.14191908
-0.40923032 -0.018853953 0.08888238 -0.28902853 0.089815475 0.08524494 0.024017049 -0.30045882
0.12773745 0.34536558 -0.43685636 -0.45330855 -0.41078287 -0.27118993 -0.44379926 0.02859238
0.04409104 -0.0738452 -0.07891669 -0.4499893 0.0066733495 0.12632863 -0.40817386 -0.41720858

fc.weight f4 [20, 128]
00000000: 6845 db3d 0e40 453f c88b 57bf aadc 86bf
00000010: bcb2 8c3f c282 5d3e 3f88 65bf 7fca a83e
00000020: b171 343e 05ad 833f 9c2c 35bf 7eca ae3f
00000030: 2951 8bbe 1221 70bd b78e 873f 3b84 82bf
00000040: 705d e53e d9d1 97bf 1cb9 a9bf 899d 35be
00000050: eed2 46be 92a3 823f 9d94 49bf 77f9 5cbf
00000060: d37b 8bbe 16f3 f5be 8e68 a1bf 595c af3f
00000070: 3f65 e33f 9cf5 4bbf 35e1 9d3f c54d 343e
00000080: 9e7b 9cbe b348 693e c73a 86bf 16ac 16be
00000090: 5ec7 b33f 1974 a2bc a2a4 3a3f 156b 6dbf
000000a0: aed2 893c 7138 abbf 4627 eabf ea6a 86bf
000000b0: 4dc5 3a3e 2a25 0240 1626 903f 4804 843f
000000c0: 8d0a 273f 6484 93be 59b5 5c3e 8e19 453f
000000d0: 1991 a63d f468 bcbf 1083 20be 88df f23e
000000e0: aadf 00bf 36f7 4cbf 4379 883e f322 00c0
000000f0: 1340 4e3f 7e3e 6dbf e423 09bf b732 bcbf
00000100: c692 77bf a665 09bd bb08 14bf ea4b d0bf
00000110: 2cf7 613f c5fb a83f 5446 a7bf 4610 c1bf
00000120: 66fd 1740 954f b1bf e8bf d3bf a952 a13f
00000130: d585 673f 8c3d f1be 3096 14bf a0f4 2ebf
00000140: 3796 3fbf cc16 9fbe 007b 4dbf 2372 02bf
00000150: e042 453f 312c ca3f ff79 06be e9c6 13bf
00000160: 4d2f 353f 3c52 e1bf 7c4d 55be d405 243f
00000170: 806b 89bf c2a7 213f 105e 84bf 3365 c4bf
00000180: e3d3 ed3e 0f15 24bf 83e0 2bbf 562e 893f
00000190: fd07 e13f e8a1 b1bf b89b 8dbf d958 4f3f
000001a0: fa7e c73f c824 833e d91e efbe dff9 01bf
000001b0: 4f7b d6bd e31a f83e 9be7 e63f 00af 613e
000001c0: 81b7 8e3f 0f1f 0dbf b1d0 c13e 42b5 8ebd
000001d0: 2f67 c13f 44fc 24c0 6f0e a1bd 149d 5abf
000001e0: f827 813e 9c49 9a3f f953 43bf d9e3 9bbf
000001f0: d105 373f 0439 2dbf 905c a2bf 319b 26bf
00000200: 841b 53bf 4f35 7e3f c3a9 93bf 3a31 d03f
00000210: 3259 19bf b17d 443f e288 d7bd 306e d3bf
00000220: 2120 09bf ecec 683e 5d3f 3bbf fc12 c5bd
00000230: 7b43 acbf 47b8 e0be 0538 dbbd ae1c 3a3e
00000240: 12e8 263f b672 9cbf 39a5 0dbf 365c 023e
00000250: 83de bebf 201e b1bf 98d6 96bf 7482 c4be
00000260: 89b5 28c0 8e13 42c0 bee5 943f 117c bf3e
00000270: b691 90bf 7d9f cf3f 6e15 6bbf 754c a3bf
00000280: 869c dc3f 6a6d d7bf f712 cc3e 7724 03bf
00000290: 2435 e03e ee04 873f 0853 9b3f 60af 7ebe
000002a0: 2903 bc3f ce52 b93f de94 9a3f 715b 0dbf
000002b0: 1e59 74bf 8814 d9be 9fec 01c0 a59b c73c
000002c0: d34f cf3f 4781 8d3b 5d79 683f 01b2 98bf
000002d0: 68a2 04be 26c5 393f 0096 ae3f b4f1 923f
000002e0: f06d 99bf 8f81 bd3f d732 80bf 6885 49bf
000002f0: c159 8dbf 107e a1be 94a1 7fbf f323 99bf
00000300: 6931 653f 274e e03e b9aa debf 140c a2be
00000310: 0a61 763f a367 a7be f8e8 35bf 1437 ff3f
00000320: f286 693e a055 883f fc94 e9be 7332 0b3f
00000330: d187 99be dcf4 f1bf 1d15 1540 b7b7 d53f
00000340: 1686 1cbf d39b 25bf c45f f23e de8b 1abe
00000350: 24ee 2abf 9114 69be 7665 07be 1fa9 0340
00000360: d766 1bbe 100d c2be 67ad d2be f204 853f
00000370: c811 1940 fae4 113e 55da 353f d5e6 8b3f
00000380: 4bc3 44bf d9ec dd3f a8d6 0a3f 54ac af3f
00000390: f56e 133e 2891 18c0 e45e 1bbe ff72 1c3f
000003a0: 0bb7 453e 19da f43f 643c 3bbe dbc2 e53f
000003b0: 6f0c d63f 0cea c43e f8bd a73f 7357 a2bf
000003c0: efec 25c0 542d 5bbf 1fe8 87be d296 833f
000003d0: 0168 79bf 7219 083f e268 9b3f d8c5 86be
000003e0: 70eb 57be 34f0 b9be dcf1 3ebf 4aaa 0ebf
000003f0: 5a93 02c0 27b9 d93e f976 a7be f2d1 b2be
0.107065976 0.77050865 -0.84197664 -1.0536091 1.0992045 0.21631911 -0.8966102 0.32966992
0.17621495 1.0287176 -0.70771194 1.3655546 -0.27210358 -0.05862529 1.0590428 -1.0196604
0.4479785 -1.1860915 -1.3259616 -0.17735876 -0.19416401 1.0206168 -0.7874239 -0.86318153
-0.27242908 -0.48037022 -1.2610033 1.3700057 1.7765273 -0.79671645 1.2334353 0.17607792
-0.30563062 0.22781639 -1.0486687 -0.14714083 1.4045217 -0.01983075 0.7290746 -0.9274152
0.016824093 -1.33766 -1.8293235 -1.0501378 0.18239327 2.0335183 1.1261623 1.0313807
0.65250474 -0.28811944 0.21553554 0.7699212 0.08133144 -1.4719529 -0.15674996 0.47436166
-0.50341284 -0.80064714 0.26655015 -2.0021331 0.8056652 -0.9267348 -0.5357039 -1.4702977
-0.96708333 -0.033544205 -0.5782582 -1.6273167 0.8826778 1.3201834 -1.3068337 -1.5083091
2.3748412 -1.3852412 -1.654294 1.2603351 0.90438586 -0.4711727 -0.5804167 -0.6834202
-0.74838585 -0.3107208 -0.8026581 -0.5095541 0.7705517 1.5794736 -0.13132475 -0.5772539
0.707753 -1.7603221 -0.20830339 0.64071393 -1.0735931 0.63146603 -1.0341206 -1.5343384
0.4645072 -0.6409463 -0.6713945 1.0717266 1.7580563 -1.3877535 -1.1063147 0.80994946
1.5585625 0.25614 -0.46703222 -0.507719 -0.10472738 0.48458013 1.803943 0.22039413
1.1149751 -0.55125517 0.3785453 -0.06968166 1.5109614 -2.577897 -0.07864081 -0.8539593
0.25225806 1.2053714 -0.7630001 -1.2178909 0.7149325 -0.67665124 -1.2684498 -0.65080553
-0.8246386 0.9930009 -1.1536182 1.6265023 -0.59901726 0.7675429 -0.10524155 -1.6518002
-0.5356465 0.22746629 -0.7314356 -0.096227616 -1.3458093 -0.43890592 -0.10704044 0.18175003
0.6519786 -1.2222507 -0.55330235 0.12730488 -1.4911655 -1.3837318 -1.1784239 -0.38380778
-2.63608 -3.0324435 1.1632612 0.37399343 -1.1294467 1.6220547 -0.91829574 -1.2757708
1.7235267 -1.6830266 0.3985822 -0.51227516 0.43790543 1.054838 1.2134714 -0.24871588
1.4688464 1.4478395 1.2076681 -0.55217654 -0.9544848 -0.42398477 -2.0300672 0.02436621
1.6196235 0.0043183896 0.90810186 -1.1929322 -0.12952578 0.7256645 1.3639526 1.1480012
-1.1986675 1.4805163 -1.0015515 -0.78719187 -1.1043016 -0.3154149 -0.99855924 -1.1964096
0.8952852 0.43809626 -1.739585 -0.3164984 0.9624182 -0.32696256 -0.7105861 1.9938684
0.22805384 1.0651131 -0.4562148 0.54373854 -0.29986432 -1.890285 2.3294137 1.669669
-0.611421 -0.64690894 0.47338688 -0.15092418 -0.66769624 -0.22761752 -0.13222298 2.0571973
-0.15175949 -0.3790059 -0.4114792 1.0392134 2.3917103 0.14247504 0.71036273 1.0929819
-0.76860493 1.7337905 0.5423379 1.3724465 0.14397795 -2.3838596 -0.15172917 0.6111297
0.19308107 1.9129058 -0.18284756 1.795009 1.6722544 0.38459814 1.3104849 -1.2682937
-2.5925863 -0.8561604 -0.26544282 1.0280402 -0.9742432 0.53163826 1.2141383 -0.26322818
-0.21085906 -0.36316073 -0.745878 -0.5572859 -2.0402436 0.42524073 -0.32707956 -0.349258

fc.bias f4 [20]
00000000: 0991 e73c 0ba0 9a3e dcb1 c7bc 8879 6b3d
00000010: a7eb b8bc ad2c 613d 8299 47be 9c12 86be
00000020: bc7e 943e cde7 eb3e c779 d2be b091 4bbb
00000030: d439 40be b1e1 c1be f5c8 673e f20b 643e
00000040: 3727 a23d 90d0 ee3d 5036 98bf c590 f8be
0.0282674 0.30200228 -0.024376802 0.057488948 -0.022573305 0.054974247 -0.19492152 -0.26186073
0.2900294 0.46075287 -0.41108534 -0.0031062178 -0.1877206 -0.378675 0.22635253 0.22270182
0.07917636 0.11660874 -1.1891575 -0.4854795

exp_avg f4 [512, 20]
00000000: 2dd1 c839 7f2c 763a 5c6d d0b8 8838 8b39
00000010: 219a c0b8 2572 75ba 818a ebb7 95be 26ba
00000020: cf57 0e3a e118 83b9 9c83 f838 4858 243a
00000030: b6c8 0239 0dab a1b9 8a5d 2e39 69f8 f8b9
00000040: 4cef 0538 acd3 0838 b839 3739 e09e 1339
00000050: 4925 7339 e215 9b3a de16 9db8 214c c0b9
00000060: a1c6 e2b9 f389 0f3a 2787 adb8 592f 2b39
00000070: 3517 7bb9 fc80 b9b9 fe42 bc38 95eb 9a39
00000080: fbf9 bf38 13e0 5e38 1669 1439 0443 1dba
00000090: 3112 a738 0cbe 193a 3c21 8138 81bd 8139
000000a0: f449 2c3a 0d86 7837 288a 31ba 6f44 04ba
000000b0: c283 9739 1594 823a c7ca 3fb9 dab7 d6b8
000000c0: e299 b23a 9f22 8439 8221 0138 3dbf 4eb9
000000d0: 326b a338 59d5 cd39 eafd 82ba 6cf4 1c39
000000e0: 09e5 48b9 ad75 aa39 cd36 23b7 4e56 5839
000000f0: b258 6e3a 9c01 8337 7bec dc39 eb36 b0b9
00000100: d97e 1b3a 6068 8cb9 aeab c7b9 2180 083a
00000110: 3449 4cb9 ae38 323a c8a2 b8b8 dade d9ba
00000120: 5839 4eba cc81 d1b8 2175 df38 ade5 dc34
00000130: 6a7e dcb9 f92f 0839 5fc6 dd38 17f6 ca39
00000140: 32c6 4f39 daca 8b39 4236 12b6 acd8 183a
00000150: 6dc9 0bba 7964 04ba be79 6639 7a55 d9b9
00000160: a18f 003a cb7b f0b8 10e8 4e37 87e6 0cba
00000170: f560 cdb9 5f6a 053a c3b8 0eb9 00b3 583a
00000180: 2773 b5b9 3e12 fb39 e6f6 9238 544a 58b8
00000190: 7948 17ba 83ad 3e3a 81ca 23ba 254f 59b8
000001a0: 47e1 b8b8 ceb9 cdb8 f43f 20b9 76f5 d739
000001b0: 95ff 8a38 53ed a239 6533 2538 bd4b b8b9
000001c0: b45c 43b9 daf6 0039 c956 98b9 d46f e3b9
000001d0: 9940 3bb9 d729 ef39 aab5 ca39 3199 49b9
000001e0: cd28 3639 6b8a 88b8 cc72 12b8 2f9b 6139
000001f0: 264b e039 482b 0138 763c 1d39 d1ef 803a
00000200: 4fa9 4339 822d 4a39 9864 3e38 955e 5439
00000210: d2be aa39 4d65 5139 c178 f538 7f85 acb9
00000220: ba1a 2c38 5348 7039 11a9 5db9 9548 85b9
00000230: ca39 353a 026b 7eb9 5d24 4d39 bbf3 2638
00000240: 7dd8 b3b8 3846 453a ffbc 9bb8 b5b9 e5b8
00000250: dc40 38ba 48e9 c1b9 e3cf cd37 0b33 2d39
00000260: fbc7 b539 242c 01b9 677e 98b9 9e5f a0b9
00000270: 40e0 5939 4768 ceb8 3e84 ea39 770a dbb9
00000280: 4534 61b9 4b81 b1b8 533b 9f39 94c1 82b7
00000290: ff16 1239 d907 ce39 a0f6 8437 e381 593a
000002a0: 2d75 19ba bb25 ec38 bdea 32b9 2319 bb38
000002b0: 6446 db39 b48b c936 bd35 003a a734 0c3a
000002c0: 0ca2 bbb8 67fa 8db9 6c4e 91b9 0133 68b9
000002d0: 05c2 ed38 5ddc 1ab9 4646 43b9 ad1e 0c39
000002e0: 9f86 8c38 3572 b0b7 6f19 49b8 da00 8bb9
000002f0: 9b4b b439 180d bc39 64d5 9a39 737a 6c3a
00000300: 8d2d f138 de01 3cba a3ea 273a f28e 5c39
00000310: aff1 7db9 22a7 273a bbb6 2139 ca05 cfb8
00000320: 06a9 44ba c773 00ba a36b 82b9 c0da 7839
00000330: 1f17 2438 22b5 3aba d42f 5b39 f57c b4b9
00000340: 4c91 ca38 d2bc a339 f123 6037 6845 aeb9
00000350: 6c7a e5b8 9827 df39 90e4 8e39 bf15 37b9
00000360: 74fd 0a38 059f 7c39 d68f d437 ab0b 20b7
00000370: 4d20 5c39 fea8 6eba 515f 9c39 484e 43b8
00000380: a6d2 13b9 d908 44ba e2dd b439 5445 d839
00000390: b214 9fb9 cb83 5139 618e 3739 1a86 b4b7
000003a0: 3dda 8fb8 6b6d 3fb9 efed e238 2349 f9b8
000003b0: 70ca 7938 d81f d7b8 b9e5 dc39 75b9 b9b8
000003c0: 39b5 a5ba b89e 7039 43fd 343a 9b20 1aba
000003d0: 5071 cf39 9794 a5ba d9ed 8bb8 75df 013a
000003e0: 3921 933a 6f91 94b9 6267 55b7 eef9 0c39
000003f0: 9f1e 4bb9 76dd dab9 0383 803a 954a 25b9
0.0003830282 0.00093907857 -9.938583e-05 0.00026554265 -9.183982e-05 -0.0009363017 -2.8078679e-05 -0.00063607964
0.00054299546 -0.00025004803 0.00011850076 0.00062692584 0.00012472537 -0.00030835756 0.00016628779 -0.00047487326
3.1932534e-05 3.262206e-05 0.00017473742 0.00014078198 0.00023188176 0.0011832083 -7.490603e-05 -0.00036677814
-0.0004325407 0.0005475573 -8.274457e-05 0.00016325469 -0.0002394587 -0.0003538205 8.977017e-05 0.0002954869
9.154152e-05 5.313761e-05 0.00014153527 -0.0005999061 7.966569e-05 0.0005864806 6.15739e-05 0.0002474599
0.0006572299 1.4813163e-05 -0.0006772601 -0.0005045598 0.00028899132 0.0009962345 -0.0001829072 -0.0001023856
0.0013626183 0.00025202797 3.0787203e-05 -0.00019716933 7.792412e-05 0.00039259603 -0.0009993885 0.00014968374
-0.00019158809 0.00032512602 -9.728316e-06 0.00020631516 0.0009092196 1.5617166e-05 0.00042137862 -0.00033610253
0.00059316825 -0.00026780646 -0.0003808415 0.0005207081 -0.00019482226 0.0006798607 -8.804124e-05 -0.0016622201
-0.0007866821 -9.990073e-05 0.000106552856 4.1145304e-07 -0.00042055856 0.00012987842 0.00010575051 0.00038711794
0.00019814892 0.00026663282 -2.1787278e-06 0.00058306265 -0.0005332444 -0.0005050372 0.00021979862 -0.0004145315
0.0004904215 -0.0001146715 1.2332588e-05 -0.00053749274 -0.00039172886 0.0005089398 -0.00013611004 0.0008266419
-0.00034608805 0.00047888042 7.007811e-05 -5.1567637e-05 -0.0005770992 0.000727378 -0.0006248132 -5.181054e-05
-8.815765e-05 -9.8097706e-05 -0.00015282613 0.00041190878 6.627959e-05 0.00031075868 3.938693e-05 -0.00035151644
-0.00018631184 0.0001229899 -0.0002905636 -0.00043380132 -0.00017857774 0.00045616805 0.00038663793 -0.00019225922
0.00017372072 -6.510768e-05 -3.4916025e-05 0.00021515483 0.000427806 3.0796306e-05 0.0001499521 0.0009837096
0.00018659722 0.00019281174 4.5393215e-05 0.0002025313 0.000325671 0.0001996953 0.000117050025 -0.0003290586
4.1032887e-05 0.00022915126 -0.00021139185 -0.00025421815 0.00069132133 -0.00024263191 0.0001956387 3.9804476e-05
-8.575709e-05 0.0007525417 -7.426179e-05 -0.000109541616 -0.0007028708 -0.00036985637 2.453471e-05 0.0001651758
0.00034672007 -0.00012318842 -0.00029085876 -0.00030588818 0.00020778272 -9.8422686e-05 0.00044730486 -0.00041778732
-0.00021477144 -8.4641004e-05 0.00030371043 -1.558735e-05 0.00013932212 0.0003929723 1.585047e-05 0.00082972477
-0.00058539474 0.00011260385 -0.0001706285 8.921537e-05 0.0004182338 6.0065304e-06 0.000489082 0.0005348422
-8.9470384e-05 -0.0002708018 -0.00027714984 -0.00022144245 0.000113371796 -0.00014768676 -0.00018622828 0.00013362868
6.700795e-05 -2.1034017e-05 -4.794582e-05 -0.0002651278 0.00034388606 0.0003586791 0.00029532157 0.0009020932
0.0001150026 -0.0007171909 0.0006405508 0.00021034086 -0.00024217994 0.0006395449 0.00015422229 -9.8716075e-05
-0.0007501993 -0.00049000647 -0.00024875728 0.00023732614 3.912218e-05 -0.0007122328 0.00020903285 -0.00034425376
9.659174e-05 0.00031230465 1.3359809e-05 -0.00033239578 -0.00010942374 0.00042563374 0.00027254643 -0.00017460341
3.313781e-05 0.00024091832 2.5339348e-05 -9.53946e-06 0.00020992868 -0.0009104161 0.00029825655 -4.6564528e-05
-0.00014097485 -0.0007478125 0.0003449759 0.00041250384 -0.00030342262 0.0001998089 0.0001750528 -2.1520118e-05
-6.8594214e-05 -0.00018255941 0.00010820838 -0.00011886868 5.955476e-05 -0.0001025793 0.00042132827 -8.8560315e-05
-0.001264251 0.00022947311 0.0006904194 -0.00058794924 0.0003956654 -0.0012632784 -6.672339e-05 0.0004954257
0.0011225111 -0.00028337116 -1.271986e-05 0.00013444546 -0.00019370996 -0.000417452 0.000980467 -0.0001576341

exp_avg_sq f4 [512, 20]
00000000: a740 0536 9189 4336 3629 8435 6345 4735
00000010: a4df 0735 b055 fe36 e529 f134 8d39 8a36
00000020: d086 e235 4940 5b36 96c6 4134 046d ac36
00000030: fee8 8436 9e40 e235 1b5f 0936 00c6 3b36
00000040: a7a4 0336 70ef ea35 fd06 aa34 5448 9635
00000050: 2d98 0136 dc22 b937 86fc f635 4508 ed35
00000060: fc5c 9336 e0e8 1336 cd27 c335 52b4 f935
00000070: 9024 bc35 0c5d 1936 2eb9 4735 73cb f335
00000080: de61 c335 9be4 2e35 4fb8 8936 8fe3 a736
00000090: 7d97 7735 1a64 7635 8bf8 3235 a967 dc35
000000a0: 5725 a136 030f 4336 0b5e 7136 1934 2536
000000b0: 164e 8036 0273 3a37 e13c 0835 4e1a 5436
000000c0: 1959 a936 1701 5435 2588 0735 fc44 2136
000000d0: 24d3 1d36 51f5 9435 398e 8b36 c38f 2c36
000000e0: 4caf 3b36 1d06 5236 2fb5 c431 534a 9e35
000000f0: de6c 1d36 2744 a935 6323 4435 2411 a036
00000100: 880f 8b35 f259 6e36 711b 0e35 e8a9 af35
00000110: ac06 9435 1bf8 5e36 7e82 ad34 4db4 6036
00000120: 6467 6f36 35b8 ef34 ab8a 5236 2002 8635
00000130: d2cf b035 cea9 2836 7d90 c334 44d5 1436
00000140: d9c6 9136 42c4 0936 88c4 b934 51c3 2636
00000150: b70f 1736 c632 d836 51a7 0435 2487 1636
00000160: 2a9e cf36 f181 0c36 01f4 c534 56de 0636
00000170: 1839 ba35 f30e 2436 572c 7236 3066 2c36
00000180: dbb5 0536 a3fd 4336 5141 3e35 930a bb35
00000190: c6c1 ea35 1988 9f37 3d8c 0d36 c42f 6036
000001a0: b57f dd35 b064 f336 be05 3a35 3faf 4536
000001b0: 69a7 8f36 4921 f536 11c7 a833 567a 7936
000001c0: 5e52 8e35 b10b ae35 c7f9 9e35 10f0 9a36
000001d0: a78d f635 5e9f 5136 2e84 1136 2b7a 4436
000001e0: a2f1 7136 7540 2136 766e 3535 7711 a635
000001f0: 0439 4136 0152 c336 16ec d535 1cad 1436
00000200: 72b0 5936 7715 2436 69fb d834 ca01 6636
00000210: d2b0 f433 2bb5 5435 c24f 8b35 88b7 7a35
00000220: e443 8835 1655 4636 15d9 fb34 b27c 1835
00000230: d593 d636 58a0 5f36 1921 d634 d31d 9c35
00000240: c4f0 3f35 921c 0536 ad25 1035 2c2e 9a35
00000250: 81a8 6036 6015 a535 45e6 4635 53fd 1735
00000260: 56c2 4735 c044 7836 512b 5a36 a46e cf35
00000270: bfae 1536 d7a3 d035 9f15 d435 7fd2 0935
00000280: b650 9735 4c3f 9936 671b 6635 a959 b432
00000290: f0bd 0e36 8eb5 f535 8292 9535 cc8a 5a36
000002a0: a066 6936 9802 8036 a7bb 1435 c218 ad35
000002b0: 0540 c136 677c 0434 4e17 0336 45d1 9d36
000002c0: e620 d234 9d12 9a35 6ef7 2635 c394 5035
000002d0: 6342 ab36 b1d2 8435 d586 a435 4355 3b34
000002e0: 25bf b235 eae1 3836 745a da34 95b4 1435
000002f0: 67b5 2336 b5d4 b635 c9ec 0835 925a 1836
00000300: 2de8 9d35 7d95 2936 e9b6 0e36 94c7 2136
00000310: 0eed 7036 1977 fe35 6e7a a935 1696 5235
00000320: 8b0d a636 850e 7d35 bb2f f335 de65 6135
00000330: 6eef 1d36 89fe b836 5f29 0635 0f85 3a35
00000340: 9190 5e35 7279 ea35 bf43 7235 3e56 b636
00000350: 9d80 de35 ceea 8b35 a6d1 2636 a647 8f35
00000360: 67a7 9d36 277b 4936 7702 6335 8cfb 3a34
00000370: a2ca d635 1043 9537 42c6 8b35 4bd1 bd35
00000380: 1ebf d535 dff9 df36 4162 b635 412b ea35
00000390: d485 3b36 a501 7136 02e9 5735 27b6 4636
000003a0: ca25 b235 3a52 8035 d7c2 b736 119b 8236
000003b0: 506c 9d35 e3bf 0036 86c8 a535 5092 7735
000003c0: 458b 9436 027c 7536 323a cc35 2fde 6535
000003d0: 9a06 1036 bf22 2637 c106 c635 c342 5b36
000003e0: 61cb 0d37 5c8d 8636 e2af 3835 c1c6 2336
000003f0: a6ed 0836 0d1a 4c36 e54f 9036 a1e2 3b36
1.9856177e-06 2.9137339e-06 9.84676e-07 7.423425e-07 5.061686e-07 7.579765e-06 4.492023e-07 4.1194203e-06
1.6877548e-06 3.2670962e-06 1.8046771e-07 5.1386905e-06 3.9610304e-06 1.6857118e-06 2.046995e-06 2.7980423e-06
1.9616361e-06 1.7504044e-06 3.1670052e-07 1.1196921e-06 1.9311076e-06 2.2069951e-05 1.8401922e-06 1.7660283e-06
4.391766e-06 2.2040258e-06 1.4540216e-06 1.8604426e-06 1.4017733e-06 2.2852937e-06 7.440275e-07 1.8164122e-06
1.4557115e-06 6.5152716e-07 4.1043745e-06 5.003479e-06 9.2235115e-07 9.178781e-07 6.6671845e-07 1.6421446e-06
4.802521e-06 2.9066002e-06 3.5966539e-06 2.461724e-06 3.8237877e-06 1.1113241e-05 5.075254e-07 3.1605773e-06
5.046965e-06 7.897774e-07 5.0489535e-07 2.4031024e-06 2.3517723e-06 1.1098256e-06 4.1590797e-06 2.5713678e-06
2.7967208e-06 3.1295997e-06 5.724949e-09 1.1793549e-06 2.3458192e-06 1.2611316e-06 7.3067184e-07 4.770367e-06
1.0360827e-06 3.5517119e-06 5.2939055e-07 1.3087965e-06 1.1028801e-06 3.3224994e-06 3.2318707e-07 3.348355e-06
3.5673957e-06 4.4651247e-07 3.1373154e-06 9.984396e-07 1.3173506e-06 2.513279e-06 3.642671e-07 2.2177855e-06
4.3444857e-06 2.0528828e-06 3.460193e-07 2.4849617e-06 2.25099e-06 6.4432124e-06 4.941731e-07 2.2430404e-06
6.1874935e-06 2.0937262e-06 3.6871646e-07 2.0096973e-06 1.3874696e-06 2.4446606e-06 3.608662e-06 2.5689478e-06
1.9924398e-06 2.92049e-06 7.0875564e-07 1.3935663e-06 1.7490754e-06 1.9017652e-05 2.1092267e-06 3.3406404e-06
1.6502951e-06 7.253686e-06 6.9298756e-07 2.9457294e-06 4.281221e-06 7.305444e-06 7.8593196e-08 3.71751e-06
1.0603796e-06 1.2967413e-06 1.1844612e-06 4.6175046e-06 1.8369655e-06 3.123619e-06 2.1683622e-06 2.9277387e-06
3.6052447e-06 2.4028388e-06 6.7588496e-07 1.2373047e-06 2.8792429e-06 5.8209994e-06 1.5938447e-06 2.2154481e-06
3.2438224e-06 2.4450399e-06 4.041606e-07 3.4273712e-06 1.1394299e-07 7.923979e-07 1.037952e-06 9.339933e-07
1.0152548e-06 2.9553826e-06 4.691034e-07 5.680587e-07 6.394907e-06 3.3322922e-06 3.9884688e-07 1.1631586e-06
7.1503405e-07 1.9835174e-06 5.3699006e-07 1.1487332e-06 3.3476683e-06 1.2299679e-06 7.4095834e-07 5.662052e-07
7.4416073e-07 3.6994898e-06 3.2509745e-06 1.5454902e-06 2.2304446e-06 1.5544891e-06 1.5801523e-06 5.134279e-07
1.1273867e-06 4.567124e-06 8.572155e-07 2.099553e-08 2.1270207e-06 1.8306762e-06 1.1144004e-06 3.2565322e-06
3.4779441e-06 3.814999e-06 5.5407367e-07 1.289671e-06 5.759301e-06 1.2338715e-07 1.9534086e-06 4.703327e-06
3.9139485e-07 1.1479311e-06 6.2199877e-07 7.7702515e-07 5.1039256e-06 9.896086e-07 1.2258193e-06 1.744675e-07
1.3317664e-06 2.7549636e-06 4.0671478e-07 5.539708e-07 2.4394483e-06 1.3621963e-06 5.1008516e-07 2.2702484e-06
1.1764984e-06 2.5269976e-06 2.1266117e-06 2.410704e-06 3.590077e-06 1.8959137e-06 1.2627113e-06 7.84495e-07
4.948762e-06 9.4270973e-07 1.8118802e-06 8.396727e-07 2.353419e-06 5.513259e-06 4.9979093e-07 6.9484025e-07
8.2911816e-07 1.7469704e-06 9.025061e-07 5.4340626e-06 1.657772e-06 1.0424644e-06 2.485796e-06 1.0675183e-06
4.698453e-06 3.0023018e-06 8.4567677e-07 1.7414112e-07 1.6003216e-06 1.7793413e-05 1.0414008e-06 1.414251e-06
1.5925359e-06 6.6750067e-06 1.3588652e-06 1.7446947e-06 2.794307e-06 3.5912756e-06 8.043281e-07 2.9610326e-06
1.3273032e-06 9.560674e-07 5.4765073e-06 3.892354e-06 1.1728935e-06 1.918518e-06 1.2351818e-06 9.2227583e-07
4.426957e-06 3.6580027e-06 1.5216121e-06 8.563247e-07 2.1461515e-06 9.902461e-06 1.4754115e-06 3.2672403e-06
8.451608e-06 4.0099676e-06 6.8801285e-07 2.4404583e-06 2.0403909e-06 3.0413532e-06 4.3008354e-06 2.7997087e-06
