checkpoint.pt (torch, 959970 bytes, 18 tensors)

lstm.weight_ih_l0 f4 [512, 20]
-1.4560418 -0.047177225 0.54463315 3.7729106 1.8407818 -1.0351264 -0.45598596 -0.37102157
-1.0247716 0.10339839 0.8085277 0.4913341 -1.4487829 0.4010794 -1.4195752 0.81197083
0.3631752 -1.0510854 1.9306252 1.1212738 -1.0122921 0.2105985 -0.19287518 0.40419364
0.19195086 -0.6137136 0.27684385 -0.045123044 -0.17426062 -0.53776646 0.1246677 -0.6120943
0.18530416 1.5432104 -0.26501185 0.20740096 -1.1390567 -0.9748844 0.7001134 0.5483505
-0.4965705 0.335683 0.33562008 0.5847058 0.4900459 0.6888022 0.2739203 -0.4944075
-0.39960608 -2.1197362 0.5698355 1.0907631 -0.70173573 -0.93234545 -0.41184613 -1.2172868
-0.3260153 0.25397432 -2.722453 0.23869549 -0.52535826 0.22217134 0.0958505 0.25790378
-0.520993 -0.64436525 -0.2301476 0.402536 -0.6350126 0.029069556 -1.1108305 0.1545676
0.2778341 -1.4431937 -0.25037554 0.7776183 0.15151206 -0.050080273 0.6168512 0.8811846
0.026826797 -0.3923464 -0.80158293 1.6155739 0.9650271 -0.76245314 -1.1076845 -0.64451987
-0.49998492 -1.2204792 -0.28538963 0.77754533 -0.26083305 -0.46605018 0.39321268 -1.339915
0.85214347 0.6261931 0.933677 0.883969 -0.41251877 0.36100772 0.9075611 0.4941112
-0.3269721 -1.6539286 2.020867 0.19371012 -0.6349157 0.016072547 2.7212667 0.44660395
0.14383274 -0.17982109 -0.36321416 0.2544278 -0.69108176 -0.61719763 -0.648526 0.9337711
-0.43575156 -1.1556196 -0.81233037 -0.9582949 -0.86593395 0.45020398 -0.059398152 1.3469354
0.72396207 0.48466155 0.37915304 0.41176513 -3.0609102 -0.6604799 0.94371337 -1.1657641
0.18524645 0.3007574 0.45902675 -1.3423864 0.32783815 0.450975 0.34152544 -1.4845583
-0.76476896 -0.44457528 1.1205432 0.039712284 -0.71990424 -0.7000638 1.013455 -1.4776449
-0.20869297 0.20467414 -0.38951552 -1.2822798 0.6838352 0.3660719 0.9092038 -0.48762426
-0.53100294 -0.93473136 -0.42592242 -2.5811794 0.5592361 -0.13198574 0.08449187 0.3105233
-0.11019663 0.37880224 0.36924165 -1.9117724 0.31954226 -2.503129 0.41054595 0.89082426
-1.8823119 0.25518057 0.6567154 -0.70181555 0.24949476 -1.4536502 1.0058992 -2.5889628
0.4211695 -0.44132188 -0.36329567 -1.8895779 0.38494113 -0.6256309 -0.29853982 0.46064287
0.5714992 -0.21060015 0.4639402 0.0870939 0.47824186 -1.2255865 1.4398284 0.117635995
0.49201104 -1.2083246 1.0112101 -1.1980917 -0.16639628 -0.014856669 -1.575098 -1.9903101
1.7121601 -0.8439056 0.87182105 0.79579324 -1.4360979 -0.6547859 0.8483401 -1.5002035
0.95705026 0.6973495 -0.027617631 -0.35096318 -0.81417453 0.33326727 -0.5144635 1.6948138
0.6299755 -0.50305796 0.020585464 -0.6984037 -0.9415393 -0.4096877 -1.5188786 0.24586745
-0.73004055 0.2617684 -0.4571942 0.56973386 1.1430752 -0.22055751 0.6301353 0.31552902
0.15198661 -0.2688964 -0.8084869 0.7257984 0.25499073 1.0624894 -0.4828718 -0.42085132
-0.42039382 -1.0027672 -0.3265558 0.043456465 0.9184406 -0.7237463 0.5288102 1.06654
00000000: 945f babf e83c 41bd 146d 0b3f 5e77 7140
00000010: bd9e eb3f 067f 84bf fe76 e9be 8af6 bdbe
00000020: b72b 83bf 89c2 d33d acfb 4e3f 2590 fb3e
00000030: b871 b9bf 475a cd3e a4b4 b5bf 52dd 4f3f
00000040: 1af2 b93e f789 86bf ba1e f73f e685 8f3f
00000050: ca92 81bf 22a7 573e 1281 45be 78f2 ce3e
00000060: c48e 443e 561c 1dbf 7abe 8d3e f1d2 38bd
00000070: 6071 32be 10ab 09bf c751 ff3d 36b2 1cbf
00000080: 60c0 3d3e eb87 c53f a2af 87be eb60 543e
00000090: 9ccc 91bf 0692 79bf a23a 333f b360 0c3f
000000a0: 7d3e febe a4de ab3e 65d6 ab3e 48af 153f
000000b0: 4ce7 fa3e 5755 303f 483f 8c3e fb22 fdbe
000000c0: 2b99 ccbe c2a9 07c0 bde0 113f 209e 8b3f
000000d0: f4a4 33bf 31ae 6ebf 7fdd d2be 0ed0 9bbf
000000e0: 7aeb a6be ec08 823e ac3c 2ec0 976c 743e
000000f0: e17d 06bf e280 633e 444d c43d f70b 843e
00000100: cc5f 05bf 1ff5 24bf d0ab 6bbe 3319 ce3e
00000110: 3090 22bf 4723 ee3c b22f 8ebf f846 1e3e
00000120: 4540 8e3e 92ba b8bf 3931 80be fe11 473f
00000130: fa25 1b3e f920 4dbd f6e9 1d3f 5095 613f
00000140: dfc3 db3c a1e1 c8be 8a34 4dbf 20cb ce3f
00000150: 040c 773f 2130 43bf 9bc8 8dbf 41ff 24bf
00000160: 06fe ffbe aa38 9cbf 971e 92be 360d 473f
00000170: e98b 85be 219e eebe 2c53 c93e 5682 abbf
00000180: 1326 5a3f 314e 203f 7505 6f3f cb4b 623f
00000190: a935 d3be 01d6 b83e ed55 683f 25fc fc3e
000001a0: e368 a7be efb3 d3bf e355 0140 f25b 463e
000001b0: d689 22bf 93aa 833c 3c29 2e40 46a9 e43e
000001c0: e448 133e 0523 38be 35f7 b9be 5c44 823e
000001d0: bcea 30bf aa00 1ebf cd05 26bf 9f0b 6f3f
000001e0: d41a dfbe 58eb 93bf e2f4 4fbf d152 75bf
000001f0: d9ad 5dbf 2381 e63e 7a4b 73bd 6168 ac3f
00000200: 9455 393f 8f25 f83e 5920 c23e e1d2 d23e
00000210: f4e5 43c0 3615 29bf 3397 713f c237 95bf
00000220: 3fb1 3d3e e0fc 993e 8e05 eb3e 51d3 abbf
00000230: 67da a73e 32e6 e63e 6cdc ae3e 0206 bebf
00000240: e6c7 43bf 5f9f e3be f66d 8f3f 59a9 223d
00000250: a54b 38bf 6237 33bf e5b8 813f 7823 bdbf
00000260: 9cb3 55be 1996 513e 946e c7be bf21 a4bf
00000270: d30f 2f3f c76d bb3e 95c1 683f e3a9 f9be
00000280: cfef 07bf 8e4a 6fbf 8112 dabe 0b32 25c0
00000290: 192a 0f3f 4527 07be 130a ad3d e9fc 9e3e
000002a0: c5ae e1bd 5ef2 c13e 3e0d bd3e f5b4 f4bf
000002b0: 0b9b a33e 4433 20c0 1433 d23e 0f0d 643f
000002c0: 99ef f0bf 07a7 823e 801e 283f 2faa 33bf
000002d0: 8e7b 7f3e 3611 babf 4ec1 803f 91b1 25c0
000002e0: 87a3 d73e f1f4 e1be e401 babe b0dd f1bf
000002f0: 0117 c53e 5929 20bf 36da 98be 62d9 eb3e
00000300: c64d 123f 91a7 57be 9289 ed3e 495e b23d
00000310: 1edc f43e 05e0 9cbf 4c4c b83f 24eb f03d
00000320: dfe8 fb3e 61aa 9abf 556f 813f 125b 99bf
00000330: c963 2abe 6369 73bc d09c c9bf 7bc2 febf
00000340: 1028 db3f 330a 58bf aa2f 5f3f 1bb9 4b3f
00000350: 0ed2 b7bf 0ca0 27bf d12c 593f ab06 c0bf
00000360: 3f01 753f 7f85 323f 5f3e e2bc 72b1 b3be
00000370: be6d 50bf 02a2 aa3e e1b3 03bf a9ef d83f
00000380: 1346 213f 68c8 00bf d9a2 a83c 96ca 32bf
00000390: b808 71bf 96c2 d1be 9d6a c2bf adc4 7b3e
000003a0: f0e3 3abf 8206 863e 5c15 eabe 14da 113f
000003b0: 4a50 923f d4d9 61be 8c50 213f 058d a13e
000003c0: 61a2 1b3e caac 89be fff8 4ebf edcd 393f
000003d0: 258e 823e a7ff 873f f93a f7be d379 d7be
000003e0: dc3d d7be ad5a 80bf 5232 a7be 68ff 313d
000003f0: ec1e 6b3f 7047 39bf 1b60 073f 6284 883f

lstm.weight_hh_l0 f4 [512, 128]
-0.21330377 0.049920216 -0.61046237 0.17948043 -0.768692 0.016277673 -0.3353374 -0.5878287
1.0540518 -0.6637094 0.4072928 0.62030655 -0.9397695 -0.26764712 1.120973 0.9409053
0.86854947 0.26652068 0.16537948 0.26710707 0.39449704 1.4599515 -0.5821971 0.20368731
-0.38838044 0.48870897 0.1848088 -0.19086958 -0.12428623 0.6137859 -0.5648525 -0.5248017
0.58979875 0.37199944 0.5378498 0.020809736 0.41415492 0.2967862 0.06280849 0.2789779
0.74582136 -0.60754925 -0.03279815 0.49822396 0.23626412 0.06162556 -1.1027867 -0.3533528
-0.21768096 0.14959684 -0.076851435 -0.06724127 0.4481939 0.377047 -0.25868383 0.48742574
0.7246716 -0.21371858 0.74957156 0.018206984 -0.08192182 -0.22607672 0.7594215 -0.38115746
0.53462005 -0.11260165 0.39200756 0.23298007 -0.0708459 0.22498223 -1.3260093 -0.0038978215
0.41741922 1.2732133 0.34420803 -0.8485851 -0.5035682 -0.9965343 0.30029833 0.16177912
-0.48492515 1.0019629 0.15475383 -0.5086276 0.34364095 -0.03167875 0.4478433 0.22775343
-0.3639463 -0.26377824 0.2915811 -0.8354603 0.02018266 -0.9181944 1.1756455 -0.4222403
-0.90929717 0.7139299 -0.76421446 0.12407996 -0.44415876 0.20841084 0.30484784 -0.003339292
-0.034654513 0.38019705 0.3282511 -0.32170066 -1.2739202 0.39876458 0.045749996 0.53402346
-0.30752715 -0.2611688 -1.1703635 0.86268765 0.6788201 0.18338749 -0.55244756 -0.16651879
-1.0383133 0.05418622 0.6710229 1.2150067 -0.31995013 0.15349321 0.8222382 0.65923387
-0.66773707 -0.40391636 0.26667094 0.2922172 0.5483512 -0.5912514 0.36887842 -1.0796489
0.23428404 0.5216347 0.83324295 -0.21250801 0.5487062 -1.0300967 0.060041584 -0.64081544
-1.1489533 -1.8865684 -1.3572391 0.5543374 -0.8699499 -0.7663608 -0.20251748 0.24528547
1.0487744 0.3379351 1.1774901 -0.56966054 0.64565676 0.04257111 0.07697212 -0.93337446
-0.06616719 0.8844629 -0.593965 0.3235958 -0.12781717 1.6910466 -0.19841722 -0.35690588
0.49157876 -0.35939807 -0.25981838 -0.91186374 0.9802221 -0.4001862 0.080803014 -0.36875284
0.24089745 0.12784263 -1.0186676 0.059004348 0.7523888 -0.70727897 -0.072257504 0.9971824
-0.5699028 0.6739574 -0.34605467 0.07370814 -0.4084031 0.1366984 -0.43896607 -0.4746568
0.092274986 0.25313887 0.014691222 -0.5237621 -0.05610594 0.16894923 0.15564333 0.5216035
0.6577864 0.46119732 -0.24443868 0.5331106 0.060045168 -0.26451036 1.1486602 0.20464282
0.31115267 -0.8650235 -1.13229 0.5685425 -0.25121674 0.42074478 0.30504158 0.6092512
1.399525 -0.028680028 -0.46437725 0.022906031 0.4899822 -0.13276185 1.2595892 0.28865713
0.58395135 0.38359663 -0.35830036 0.5559211 -0.6932192 1.1117327 -0.121313475 -0.26729277
-0.35455287 0.02161423 0.016884996 -0.39805776 -0.054239046 -0.53803027 1.0255582 0.46324453
0.22371013 -0.4501768 -0.26584047 -0.8681321 0.24861987 -0.06161093 0.6307577 0.13208574
0.32729584 -0.48973292 0.11663703 -0.33811122 -0.060243428 0.3152851 0.7121192 -0.6048312
00000000: 4e6c 5abe 2479 4c3d 4347 1cbf b8c9 373e
00000010: 00c9 44bf c158 853c 58b1 abbe f17b 16bf
00000020: 2beb 863f dce8 29bf af88 d03e 69cc 1e3f
00000030: bc94 70bf 0b09 89be 0b7c 8f3f 2bdf 703f
00000040: 4259 5e3f 6675 883e 3d59 293e 42c2 883e
00000050: 84fb c93e b1df ba3f df0a 15bf 6893 503e
00000060: cdd9 c6be 1038 fa3e 853e 3d3e 5173 43be
00000070: c789 febd 1321 1d3f 2c9a 10bf 6759 06bf
00000080: 0dfd 163f b676 be3e 86b0 093f 2e79 aa3c
00000090: 1d0c d43e 5cf4 973e bda1 803d 31d6 8e3e
000000a0: 26ee 3e3f 5988 1bbf 5a57 06bd 3617 ff3e
000000b0: 39ef 713e 156b 7c3d 1d28 8dbf a8ea b4be
000000c0: c2e7 5ebe ea2f 193e 4964 9dbd cab5 89bd
000000d0: ac79 e53e 4e0c c13e 3572 84be de8f f93e
000000e0: 1484 393f 0bd9 5abe ece3 3f3f d026 953c
000000f0: a1c6 a7bd a880 67be 7369 423f 1227 c3be
00000100: dcdc 083f b29b e6bd 37b5 c83e 5492 6e3e
00000110: a817 91bd be61 663e acba a9bf 9872 7fbb
00000120: f9b7 d53e a7f8 a23f 093c b03e e03c 59bf
00000130: d8e9 00bf df1c 7fbf b4c0 993e 6da9 253e
00000140: 1c48 f8be 5240 803f ca77 1e3e 6b35 02bf
00000150: b5f1 af3e 94c1 01bd b84b e53e 3238 693e
00000160: 2b57 babe f10d 87be 1e4a 953e bae0 55bf
00000170: 1b56 a53c ca0e 6bbf 8d7b 963f e12f d8be
00000180: b3c7 68bf 1cc4 363f 8fa3 43bf a21d fe3d
00000190: c768 e3be a769 553e 0415 9c3e 06d8 5abb
000001a0: e4f1 0dbd 30a9 c23e 8710 a83e f3b5 a4be
000001b0: d10f a3bf df2a cc3e 5964 3b3d c3b5 083f
000001c0: 3374 9dbe ebb7 85be 79ce 95bf 19d9 5c3f
000001d0: 27c7 2d3f eec9 3b3e 346d 0dbf e783 2abe
000001e0: 73e7 84bf 5ff2 5d3d 28c8 2b3f 5785 9b3f
000001f0: 81d0 a3be 532d 1d3e 347e 523f 8dc3 283f
00000200: d1f0 2abf 20ce cebe 1889 883e 7e9d 953e
00000210: bf60 0c3f 405c 17bf a2dd bc3e ef31 8abf
00000220: 28e8 6f3e da89 053f 694f 553f b39b 59be
00000230: 0278 0c3f 35da 83bf 2aee 753d 7b0c 24bf
00000240: e710 93bf 137b f1bf 03ba adbf 0ee9 0d3f
00000250: 09b5 5ebf 3930 44bf be60 4fbe 1d2c 7b3e
00000260: 3d3e 863f d405 ad3e ffb7 963f 46d5 11bf
00000270: c349 253f 0b5f 2e3d 8fa3 9d3d a1f1 6ebf
00000280: aa82 87bd 296c 623f 170e 18bf 59ae a53e
00000290: 81e2 02be 3774 d83f e22d 4bbe 5ebc b6be
000002a0: 36b0 fb3e 0603 b8be ea06 85be e76f 69bf
000002b0: d6ef 7a3f 35e5 ccbe 0d7c a53d 2ccd bcbe
000002c0: d2ad 763e 2ee9 023e b363 82bf 8bae 713d
000002d0: 8d9c 403f 3c10 35bf befb 93bd 5947 7f3f
000002e0: 26e5 11bf 7988 2c3f 142e b1be 4bf4 963d
000002f0: 361a d1be aafa 0b3e 29c0 e0be 3706 f3be
00000300: abfa bc3d 6b9b 813e 74b3 703c 4615 06bf
00000310: 58cf 65bd 0701 2d3e f760 1f3e cf87 053f
00000320: b164 283f 0e22 ec3e 224e 7abe f079 083f
00000330: ecf1 753d e76d 87be 4c07 933f e38d 513e
00000340: 674f 9f3e 2e72 5dbf e1ee 90bf 008c 113f
00000350: 7b9f 80be dc6b d73e 692e 9c3e e3f7 1b3f
00000360: a323 b33f 61f2 eabc dbc2 edbe 6ea5 bb3c
00000370: f2de fa3e b9f2 07be 383a a13f deca 933e
00000380: d67d 153f c766 c43e 2573 b7be d850 0e3f
00000390: d076 31bf 424d 8e3f 3373 f8bd 99da 88be
000003a0: f487 b5be 5310 b13c 6752 8a3c 3ace cbbe
000003b0: c329 5ebd 5abc 09bf 7e45 833f 632e ed3e
000003c0: 4514 653e 937d e6be 3e1c 88be e83d 5ebf
000003d0: 3596 7e3e be5b 7cbd 5679 213f 7c41 073e
000003e0: 5293 a73e 46be fabe 65df ee3d ea1c adbe
000003f0: d0c1 76bd 0c6d a13e 724d 363f 38d6 1abf

lstm.bias_ih_l0 f4 [512]
-0.20479845 -0.6057665 -0.5335846 -0.59669846 -0.6037373 -0.08840077 -0.4349963 -0.7359564
-0.48027998 -0.47504687 -0.3935208 -0.2772317 -0.31421897 -0.75108755 -0.23281078 -0.3975345
-0.3078862 -0.40844548 -0.6559416 -0.17573382 -0.055506326 -0.5333128 -0.3975749 -0.63123536
-0.49080443 -0.5427985 -0.52766466 -0.4541778 -0.5716669 -0.39935508 -0.19363351 -0.23586993
-0.43208343 -0.5055524 -0.6330778 -0.3493109 -0.24041949 -0.60416824 -0.21299738 -0.24618177
-0.5418912 -0.41818812 -0.580685 -0.48095262 -0.46903265 -0.28163913 -0.45580712 -0.4903125
-0.32465258 -0.63799274 -0.252799 -0.5907256 0.0021471607 -0.5569516 -0.36755812 -0.007679658
-0.6849447 -0.59673405 -0.49759957 -0.40747407 -0.1468407 -0.65553594 -0.5699322 -0.6184069
-0.59885055 -0.45553112 -0.74457717 -0.4396289 -0.64146686 -0.5912311 -0.59088796 -0.43149984
-0.69873476 -0.5193224 -0.26462322 -0.4080773 -0.5691184 -0.54862934 -0.48428783 -0.8025442
-0.5273244 -0.16794063 -0.3786591 -0.6481464 -0.29730445 -0.09523504 -0.531874 -0.61502963
-0.3651973 -0.5241564 -0.5902359 -0.439382 -0.660064 -0.54838806 -0.56622773 -0.56520134
-0.35812616 -0.48169854 -0.3031814 -0.42604896 -0.22476518 -0.66205496 -0.47001106 -0.5603162
-0.6065041 -0.47212186 -0.83575165 -0.4525694 -0.5156016 -0.42270082 -0.6508982 -0.45554695
-0.30780974 -0.44119745 -0.33825725 -0.27046484 -0.5029256 -0.44835198 -0.38408083 -0.5629357
-0.47618562 -0.5331597 -0.7537 -0.25225335 0.035622835 -0.61236924 -0.14575398 -0.45078665
-0.5136602 -0.118420266 -0.4608547 -0.16134645 -0.24864586 -0.81650853 -0.25958776 0.20117289
-0.23169896 -0.0668152 -0.27126133 -0.26247534 -0.33905852 0.18107846 -0.8815822 -0.39316806
-0.044400472 -0.5590503 0.38593182 -0.12125218 -0.67207825 -0.36157894 -0.34089836 0.05865488
-0.1978019 -0.33491647 -0.23069608 -0.26310477 -0.60567653 -0.61133486 -0.59181094 -0.6325985
-0.4771056 0.16403045 -0.31024584 -0.50204396 -0.34929773 -0.19489887 -0.60448813 -0.07345435
-0.058091626 -0.31534407 -0.3177043 -0.22032237 -0.52954066 -0.07195637 -0.28521234 0.059408233
-0.66470504 -0.050078027 -0.687175 0.12645662 -0.35086343 -0.03604454 -0.5587244 -0.8980079
-0.08164957 -0.37912932 -0.48536372 -0.23491716 -0.42438725 -0.3123146 0.054373447 0.058453657
0.19045323 -0.4219112 0.05673204 -0.29342994 -0.3401293 -0.49457058 0.07696164 -0.5379835
-0.2656083 -0.14114904 -0.19075488 -0.3506381 -0.57316494 -0.24766888 -0.6238744 -0.008211396
-0.22735995 -0.86638564 -0.44919845 -0.14082809 -0.11855595 -0.8119933 -0.6113979 -0.58439183
-0.59595406 -0.58187264 -0.5280166 -0.1744002 -0.32426405 -0.62786657 -0.26105323 -0.3507552
-0.093888976 -0.53543836 -0.3674244 -0.11552343 -0.2617007 0.12792076 -0.7131773 -0.32293007
-0.52406085 -0.21294309 0.07700955 -0.2850078 0.035896853 -0.09041371 -0.24550214 -0.53160715
0.07903319 0.47965887 -0.6512716 -0.6160559 -0.4965311 -0.187124 -0.46434844 -0.1603394
-0.041304782 -0.10046735 -0.16972312 -0.6702706 -0.03053552 0.038651347 -0.30299965 -0.41761687
00000000: afb6 51be 8313 1bbf 0099 08bf 3bc1 18bf
00000010: 878e 1abf 770b b5bd d6b7 debe a367 3cbf
00000020: 42e7 f5be 5839 f3be 8f7b c9be 50f1 8dbe
00000030: 4fe1 a0be 4647 40bf f365 6ebe a489 cbbe
00000040: 43a3 9dbe c41f d1be caeb 27bf 91f3 33be
00000050: 9a5a 63bd 3087 08bf f08e cbbe a498 21bf
00000060: b84a fbbe d8f4 0abf 0815 07bf fe89 e8be
00000070: c358 12bf 4578 ccbe dd47 46be e387 71be
00000080: 0a3a ddbe e26b 01bf 6311 22bf e1d8 b2be
00000090: 8730 76be c5aa 1abf fc1b 5abe 1317 7cbe
000000a0: 62b9 0abf c11c d6be c6a7 14bf 6c3f f6be
000000b0: 0c25 f0be 0133 90be 8d5f e9be 3d0a fbbe
000000c0: dd38 a6be 7e53 23bf df6e 81be cb39 17bf
000000d0: 61b7 0c3b 6194 0ebf 9430 bcbe a4a5 fbbb
000000e0: 8958 2fbf 90c3 18bf 5fc5 febe 71a0 d0be
000000f0: 695d 16be 34d1 27bf 14e7 11bf ea4f 1ebf
00000100: 454e 19bf 603b e9be 9c9c 3ebf 0a17 e1be
00000110: 2c37 24bf ec5a 17bf 6f44 17bf 8ced dcbe
00000120: 48e0 32bf 50f2 04bf b27c 87be 82ef d0be
00000130: beb1 11bf f972 0cbf 93f4 f7be 8973 4dbf
00000140: bbfe 06bf a1f8 2bbe 9bdf c1be ecec 25bf
00000150: 4a38 98be 970a c3bd e528 08bf 9572 1dbf
00000160: 24fb babe 1d2f 06bf b319 17bf adf6 e0be
00000170: f4f9 28bf 2963 0cbf 4df4 10bf 09b1 10bf
00000180: 505c b7be 31a1 f6be 983a 9bbe 1723 dabe
00000190: d828 66be 6f7c 29bf 4aa5 f0be e270 0fbf
000001a0: da43 1bbf f5b9 f1be d2f3 55bf 2db7 e7be
000001b0: 77fe 03bf 3e6c d8be 44a1 26bf 733d e9be
000001c0: 3d99 9dbe a2e4 e1be 0e30 adbe 5e7a 8abe
000001d0: bbbf 00bf 648e e5be 3ea6 c4be 8e1c 10bf
000001e0: 9ace f3be 277d 08bf 7cf2 40bf 5a27 81be
000001f0: 40e9 113d 3bc4 1cbf 8840 15be 82cd e6be
00000200: 3c7f 03bf 5386 f2bd 26f5 ebbe 0138 25be
00000210: 059d 7ebe b406 51bf b0e8 84be 4400 4e3e
00000220: 7e42 6dbe 68d6 88bd c4e2 8abe 2b63 86be
00000230: 1499 adbe a26c 393e 5faf 61bf 534d c9be
00000240: 45dd 35bd ec1d 0fbf db98 c53e 1053 f8bd
00000250: 520d 2cbf e020 b9be 3b8a aebe 1940 703d
00000260: 958c 4abe 2c7a abbe 983b 6cbe abb5 86be
00000270: 9e0d 1bbf 7180 1cbf ec80 17bf faf1 21bf
00000280: 2f47 f4be 99f7 273e 8bd8 9ebe f485 00bf
00000290: 27d7 b2be 9293 47be bcbf 1abf 3c6f 96bd
000002a0: 7cf1 6dbd c774 a1be 23aa a2be 309c 61be
000002b0: fa8f 07bf dc5d 93bd 5a07 92be 0c56 733d
000002c0: 1c2a 2abf 9e1e 4dbd b3ea 2fbf d87d 013e
000002d0: 5fa4 b3be 71a3 13bd 9008 0fbf d9e3 65bf
000002e0: e437 a7bd 3d1d c2be 9881 f8be 208e 70be
000002f0: 4949 d9be b3e7 9fbe b1b6 5e3d 1a6d 6f3d
00000300: 2c06 433e bf04 d8be db5f 683d 733c 96be
00000310: 6d25 aebe 5b38 fdbe 109e 9d3d 49b9 09bf
00000320: d0fd 87be 6089 10be 3f55 43be d686 b3be
00000330: f0ba 12bf e99c 7dbe 3cb6 1fbf 1789 06bc
00000340: 0cd1 68be 73cb 5dbf 57fd e5be 3d35 10be
00000350: 76cd f2bd cbde 4fbf 9384 1cbf b49a 15bf
00000360: 7290 18bf 9bf5 14bf 192c 07bf f795 32be
00000370: f005 a6be ddbb 20bf c5a8 85be 3096 b3be
00000380: dd48 c0bd 7d12 09bf 0d1f bcbe 8c97 ecbd
00000390: a2fd 85be a9fd 023e ca92 36bf 1757 a5be
000003a0: da28 06bf c10d 5abe 2fb7 9d3d 8bec 91be
000003b0: 9408 133d d32a b9bd ea64 7bbe 6817 08bf
000003c0: 27dc a13d d995 f53e bcb9 26bf d7b5 1dbf
000003d0: 5339 febe 6f9d 3fbe 14bf edbe 0330 24be
000003e0: 342f 29bd d3c1 cdbd e6cb 2dbe db96 2bbf
000003f0: a025 fabc e050 1e3d c522 9bbe e1d1 d5be

lstm.bias_hh_l0 f4 [512]
-0.15943901 -0.69559366 -0.5826175 -0.5006615 -0.54028106 -0.042358726 -0.42111355 -0.77296776
-0.54336095 -0.5790164 -0.44398662 -0.3470388 -0.29760626 -0.70034707 -0.29849648 -0.35350943
-0.2514139 -0.37246114 -0.5276514 -0.21565682 -0.20866936 -0.6242144 -0.38944197 -0.6531657
-0.36838323 -0.41213268 -0.47525313 -0.37544662 -0.6993796 -0.34940532 -0.16282709 -0.23247595
-0.5198426 -0.52758664 -0.598095 -0.315999 -0.15843976 -0.60438293 -0.15898517 -0.2968799
-0.548592 -0.37440613 -0.53019583 -0.42574012 -0.48327753 -0.3220183 -0.48599926 -0.53574514
-0.29254094 -0.64078796 -0.36286336 -0.61088985 -0.14025626 -0.4631925 -0.38230932 0.046736844
-0.56633383 -0.47329122 -0.5284122 -0.42886892 -0.12525932 -0.72434556 -0.6491028 -0.596823
-0.6086498 -0.38555652 -0.72809386 -0.3198517 -0.5324296 -0.6479583 -0.6334875 -0.2669351
-0.7135081 -0.52680665 -0.3516664 -0.43650234 -0.623382 -0.5799523 -0.4932522 -0.87326294
-0.4394146 -0.009386003 -0.30950084 -0.59072566 -0.2610374 -0.103985615 -0.41985536 -0.54421204
-0.33928418 -0.49229944 -0.6071219 -0.50888026 -0.55755955 -0.44521835 -0.647054 -0.7207113
-0.3604625 -0.58404475 -0.23734768 -0.5757438 -0.20988315 -0.6316878 -0.5049968 -0.4794875
-0.6886469 -0.510432 -0.8074795 -0.5641483 -0.6149861 -0.3980797 -0.71132815 -0.35371134
-0.43159422 -0.3982302 -0.34293675 -0.33057678 -0.5088454 -0.30720997 -0.463404 -0.5058629
-0.4309001 -0.54381335 -0.7639098 -0.19237345 -0.112756565 -0.52970654 -0.077840485 -0.34520793
-0.43165162 -0.009240659 -0.38506347 -0.15610643 -0.22164722 -0.6985438 -0.21456818 0.2766978
-0.14737095 -0.0022035423 -0.35341692 -0.262945 -0.31310755 0.085497014 -0.8620433 -0.5414877
-0.0064479024 -0.5409261 0.29959157 -0.20187597 -0.75791156 -0.30193877 -0.40526542 0.14202976
-0.16460232 -0.22124082 -0.2115621 -0.15948921 -0.61451995 -0.7048362 -0.57952917 -0.67448854
-0.47052643 0.16753788 -0.3474792 -0.45606726 -0.33830395 -0.15771589 -0.5728401 -0.047964334
-0.044795234 -0.30486265 -0.23309118 -0.21743214 -0.6258247 -0.09795728 -0.17711742 0.06653855
-0.54291064 -0.06282901 -0.6859173 0.1518408 -0.28502277 0.07514733 -0.6364486 -0.89955264
-0.099361956 -0.34971467 -0.35212567 -0.26763776 -0.44013074 -0.30501536 0.1077699 0.13505742
0.12431522 -0.46991128 -0.053073432 -0.18467918 -0.33253416 -0.4763028 0.068371214 -0.5604722
-0.15821072 -0.16861226 -0.21970104 -0.26110122 -0.5658617 -0.3323754 -0.5325798 0.022511473
-0.25633803 -0.7607426 -0.37395284 -0.26962757 0.018643487 -0.7624844 -0.6350644 -0.6011652
-0.5852454 -0.5524011 -0.5252005 -0.09007002 -0.32252532 -0.6251208 -0.23951606 -0.32043716
-0.20898126 -0.5059057 -0.33080634 -0.18120675 -0.19397497 -0.023448847 -0.749123 -0.38755038
-0.5931017 -0.13291909 0.018169986 -0.40915683 0.11110942 -0.06713291 -0.18603441 -0.5937502
0.12411875 0.31139883 -0.5963 -0.5203949 -0.4728633 -0.21504344 -0.43951386 -0.06668618
-0.005995755 -0.052386723 -0.10088637 -0.61883575 -0.023441818 0.10494166 -0.41145197 -0.46196923
00000000: fb43 23be 6d12 32bf 6c26 15bf 5a2b 00bf
00000010: dc4f 0abf 5880 2dbd 329c d7be 37e1 45bf
00000020: b419 0bbf 6b3a 14bf 3752 e3be 12af b1be
00000030: d95f 98be f249 33bf 88d4 98be 30ff b4be
00000040: 53b9 80be 3ab3 bebe 2a14 07bf 24d5 5cbe
00000050: 6cad 55be 84cc 1fbf f064 c7be de35 27bf
00000060: ba9c bcbe 0e03 d3be 6154 f3be 8a3a c0be
00000070: 8b0a 33bf 41e5 b2be 25bc 26be 2d0e 6ebe
00000080: 6814 05bf eb0f 07bf c11c 19bf 9fca a1be
00000090: 083e 22be d7b8 1abf 02cd 22be a400 98be
000000a0: 8670 0cbf 29b2 bfbe eaba 07bf 9cfa d9be
000000b0: 2770 f7be 95df a4be e5d4 f8be 9826 09bf
000000c0: edc7 95be ae0a 24bf 3ac9 b9be 4763 1cbf
000000d0: 569f 0fbe 9127 edbe 0cbe c3be 226f 3f3d
000000e0: 41fb 10bf 3a53 f2be 0646 07bf b594 dbbe
000000f0: fb43 00be b66e 39bf 9a2b 26bf 64c9 18bf
00000100: 79d0 1bbf aa67 c5be 5c64 3abf 9ac3 a3be
00000110: 4e4d 08bf 98e0 25bf 3d2c 22bf b8ab 88be
00000120: 78a8 36bf cddc 06bf 9e0d b4be 3c7d dfbe
00000130: f695 1fbf c177 14bf 8d8b fcbe 298e 5fbf
00000140: f3fa e0be c0c7 19bc e576 9ebe cc39 17bf
00000150: b2a6 85be 69f6 d4bd 48f7 d6be 7b51 0bbf
00000160: a8b6 adbe ac0e fcbe 576c 1bbf fa45 02bf
00000170: 39bc 0ebf a9f3 e3be 55a5 25bf 8980 38bf
00000180: 8a8e b8be f583 15bf 450b 73be f263 13bf
00000190: 9ceb 56be 4bb6 21bf 7847 01bf 637f f5be
000001a0: 2a4b 30bf acab 02bf fab6 4ebf 066c 10bf
000001b0: bb6f 1dbf 1ad1 cbbe 9a19 36bf a719 b5be
000001c0: ebf9 dcbe d4e4 cbbe 6895 afbe 5c41 a9be
000001d0: b143 02bf a04a 9dbe 4a43 edbe 3b80 01bf
000001e0: f09e dcbe 5a37 0bbf 988f 43bf 8cfd 44be
000001f0: eaec e6bd d99a 07bf d56a 9fbd 18bf b0be
00000200: 7101 ddbe 2266 17bc 0a27 c5be 5dda 1fbe
00000210: 7df7 62be c4d3 32bf c3b7 5bbe 56ab 8d3e
00000220: 69e8 16be 4e69 10bb 10f3 b4be baa0 86be
00000230: a24f a0be 0f19 af3d dfae 5cbf f09e 0abf
00000240: ed48 d3bb 227a 0abf 1164 993e 93b8 4ebe
00000250: 7e06 42bf b897 9abe f37e cfbe 4070 113e
00000260: 838d 28be f48c 62be bca3 58be 2451 23be
00000270: 2e51 1dbf 2570 34bf 065c 14bf 48ab 2cbf
00000280: d7e8 f0be 0d8f 2b3e cbe8 b1be a681 e9be
00000290: 2d36 adbe 4680 21be a6a5 12bf 4076 44bd
000002a0: 357b 37bd f516 9cbe 74af 6ebe 88a6 5ebe
000002b0: 0c36 20bf d49d c8bd 455e 35be 5d45 883d
000002c0: 31fc 0abf 7fac 80bd 4798 2fbf 287c 1b3e
000002d0: 81ee 91be d8e6 993d 4cee 22bf 1549 66bf
000002e0: 487e cbbd cd0d b3be d149 b4be d107 89be
000002f0: d158 e1be f92a 9cbe 77b6 dc3d 7e4c 0a3e
00000300: fa98 fe3d 3698 f0be 8763 59bd 8a1c 3dbe
00000310: eb41 aabe f6dd f3be 3506 8c3d 1b7b 0fbf
00000320: fe01 22be b1a8 2cbe 4ff9 60be 0faf 85be
00000330: 50dc 10bf 1c2d aabe 2657 08bf fb69 b83c
00000340: bd3e 83be 07c0 42bf bf76 bfbe a00c 8abe
00000350: 3aba 983c 2d32 43bf 9593 22bf f6e5 19bf
00000360: a4d2 15bf 296a 0dbf 8a73 06bf a176 b8bd
00000370: 0a22 a5be eb07 20bf b343 75be 5710 a4be
00000380: 2fff 55be 0983 01bf 735f a9be 438e 39be
00000390: 60a1 46be cc17 c0bc 86c6 3fbf 016d c6be
000003a0: 83d5 17bf f11b 08be 39d9 943c 017d d1be
000003b0: 568d e33d fb7c 89bd ce7f 3ebe 0300 18bf
000003c0: f931 fe3d ab6f 9f3e 1ea7 18bf 9a38 05bf
000003d0: 231b f2be 5934 5cbe f607 e1be c492 88bd
000003e0: 0a78 c4bb 7693 56bd 839d cebd 056c 1ebf
000003f0: 0e09 c0bc a7eb d63d d5a9 d2be 3b87 ecbe

fc.weight f4 [20, 128]
0.11983683 1.2216405 -1.4681387 -1.5984163 1.5312159 0.3513806 -1.0369451 0.3401046
0.07700936 1.3901558 -1.0717638 1.859379 -0.49185392 -0.29954508 1.7277477 -1.4911611
0.50693136 -1.7784331 -2.316639 -0.23244384 -0.5024355 1.6168207 -0.940898 -1.2156435
-0.15567532 -0.45950514 -1.607411 1.8129853 2.720786 -1.3824704 1.5861758 0.3378319
-0.30150443 0.63056105 -1.3629062 -0.34909335 1.869772 -0.121936485 1.1680853 -1.4106277
-0.15157743 -1.796772 -2.4988108 -1.3000402 0.4958444 2.4956875 1.5692128 1.2781129
1.0455335 -0.198828 0.20053338 1.3039061 0.18190211 -2.023704 -0.3924985 0.4033093
-0.82954526 -1.3214791 0.5516422 -2.9445958 0.9193836 -1.6088958 -0.9168633 -2.2835348
-1.3358873 -0.100122504 -0.75051886 -2.2148843 1.409823 1.9663025 -1.6791537 -2.454016
3.089426 -1.8526882 -2.0023544 2.0465608 1.5813776 -0.41512656 -1.0905741 -0.79942983
-0.9245071 -0.31347105 -1.1257825 -0.8059547 1.3709171 2.0636091 -0.44077608 -0.7917965
0.9124364 -2.7053752 -0.21560778 0.8758747 -1.6019516 1.2330134 -1.4759936 -1.6574185
0.71785444 -0.8490732 -1.2621067 1.4834161 2.4580529 -1.7787242 -1.4432741 0.8449548
2.0543911 0.48379505 -0.46577692 -0.48207274 -0.528932 0.8709745 2.6207361 0.3321188
1.8176136 -0.78191525 0.35782924 0.1631106 2.287338 -3.381134 -0.06527365 -1.5801841
0.47195888 1.4878144 -1.1997806 -1.7183757 0.7804249 -0.94274414 -1.9269608 -0.9187536
-0.9709996 1.9362968 -1.6027106 2.8444602 -0.83124053 0.81725746 -0.46475714 -1.8715948
-0.77592963 0.6557326 -0.8415649 0.17750198 -1.8892429 -0.29586324 -0.42076528 0.38926035
1.148222 -1.8684924 -1.0121647 0.050289143 -2.1771939 -2.2082107 -1.71039 -0.19669612
-3.251001 -4.4002247 1.293226 0.40004113 -1.8548051 2.1774395 -1.1707342 -1.8121461
2.3186023 -2.287983 0.6511773 -0.6448045 0.6353507 1.6189559 1.363279 -0.35209984
1.9635886 2.2230859 1.9721885 -0.69613427 -1.3859098 -0.21537717 -2.816293 0.06372283
2.083057 -0.19970989 1.5015123 -2.1920857 -0.2740954 1.0477135 2.168259 1.6443455
-1.7723207 2.2049673 -1.6964437 -0.7172217 -1.5143397 -0.6205224 -1.5804176 -1.613778
1.1325294 0.44567868 -2.279138 -0.38054436 1.3724189 -0.50101244 -0.9278289 2.7001102
0.27382797 1.738217 -0.38990447 0.8531517 -0.50195235 -2.600266 3.4998877 2.338905
-0.6490941 -0.6526254 0.61899805 -0.41055053 -0.99732095 -0.13010357 -0.36624175 2.2366254
-0.44360512 -0.9926497 -0.90971863 1.6781826 3.464016 0.7840144 1.1638582 1.5486772
-1.1358694 2.5301223 0.94160765 2.1767328 -0.07185498 -3.2600908 -0.5007117 0.7004334
0.2493332 2.851075 -0.1404227 2.412459 2.3021219 0.26754937 2.0843606 -1.8111929
-4.0622816 -1.2117196 -0.24654543 1.2547089 -1.5955184 0.46697554 1.5821174 -0.45593596
-0.6382895 -0.38457912 -1.2522209 -0.9320148 -2.8620973 0.65170205 -0.32942998 -0.41846684
00000000: 036d f53d b75e 9c3f f8eb bbbf e898 ccbf
00000010: e2fe c33f 28e8 b33e 9eba 84bf 3122 ae3e
00000020: 15b7 9d3d a0f0 b13f 8e2f 89bf 2200 ee3f
00000030: 47d4 fbbe f95d 99be d626 dd3f 5ede bebf
00000040: 41c6 013f b2a3 e3bf d043 14c0 c205 6ebe
00000050: 9d9f 00bf fbf3 ce3f b1de 70bf 359a 9bbf
00000060: 5a69 1fbe 4244 ebbe a5bf cdbf e70f e83f
00000070: 5c21 2e40 caf4 b0bf cf07 cb3f 4ef8 ac3e
00000080: ca5e 9abe 736c 213f b673 aebf 5dbc b2be
00000090: b054 ef3f d6b9 f9bd d283 953f 738f b4bf
000000a0: 1d37 1bbe a0fc e5bf 84ec 1fc0 b867 a6bf
000000b0: 51df fd3e 58b9 1f40 f7db c83f 3499 a33f
000000c0: 0bd4 853f 9199 4bbe 9f58 4d3e 65e6 a63f
000000d0: 8c44 3a3e 5e84 01c0 90f5 c8be 8e7e ce3e
000000e0: 145d 54bf 3a26 a9bf 6c38 0d3f 4274 3cc0
000000f0: b95c 6b3f 4cf0 cdbf 8eb7 6abf 6f25 12c0
00000100: 5bfe aabf 070d cdbd 0122 40bf aac0 0dc0
00000110: 1475 b43f cdaf fb3f 82ee d6bf 990e 1dc0
00000120: 28b9 4540 e324 edbf 9326 00c0 dafa 0240
00000130: 956a ca3f 788b d4be ef97 8bbf 6fa7 4cbf
00000140: 7fac 6cbf 477f a0be a419 90bf 0c53 4ebf
00000150: 367a af3f 2c12 0440 67ad e1be 2db3 4abf
00000160: 6f95 693f de24 2dc0 49c8 5cbe 5339 603f
00000170: c00c cdbf 62d3 9d3f 5ced bcbf 4a26 d4bf
00000180: 4fc5 373f dc5c 59bf b68c a1bf 94e0 bd3f
00000190: bd50 1d40 3cad e3bf 35bd b8bf f54e 583f
000001a0: 257b 0340 fcb3 f73e 507a eebe 3dd2 f6be
000001b0: 1668 07bf 2ff8 5e3f 24ba 2740 7a0b aa3e
000001c0: 90a7 e83f 992b 48bf 6535 b73e 7706 273e
000001d0: bf63 1240 8064 58c0 31ae 85bd 7943 cabf
000001e0: 98a4 f13e b470 be3f 6992 99bf bcf3 dbbf
000001f0: edc9 473f ae57 71bf a7a6 f6bf 7033 6bbf
00000200: 6e93 78bf 93d8 f73f 9f25 cdbf a30b 3640
00000210: 2ecc 54bf c937 513f a6f4 edbe 6b90 efbf
00000220: 53a3 46bf 17de 273f cc70 57bf 14c3 353e
00000230: b6d2 f1bf 637b 97be 8c6e d7be 224d c73e
00000240: f0f8 923f c22a efbf 9d8e 81bf fdfb 4d3d
00000250: 2557 0bc0 5353 0dc0 0fee dabf b56a 49be
00000260: 6610 50c0 a4ce 8cc0 6e88 a53f 31d2 cc3e
00000270: 416a edbf 2b5b 0b40 9eda 95bf 67f4 e7bf
00000280: fb63 1440 506e 12c0 8eb3 263f e811 25bf
00000290: 58a6 223f f239 cf3f ed7f ae3f 6e46 b4be
000002a0: df56 fb3f 0a47 0e40 ac70 fc3f db35 32bf
000002b0: 7e65 b1bf d58b 5cbe 253e 34c0 1d81 823d
000002c0: ce50 0540 c080 4cbe 8e31 c03f 224b 0cc0
000002d0: 3b56 8cbe 7a1b 863f c1c4 0a40 ea79 d23f
000002e0: 68db e2bf 2f1e 0d40 1125 d9bf d79b 37bf
000002f0: e2d5 c1bf 8eda 1ebf 204b cabf 4790 cebf
00000300: b9f6 903f ff2f e43e 66dd 11c0 b6d6 c2be
00000310: 6cab af3f 5a42 00bf 3286 6dbf 9bce 2c40
00000320: 2e33 8c3e e57d de3f 8fa1 c7be 2668 5a3f
00000330: f37f 00bf c26a 26c0 29fe 5f40 9fb0 1540
00000340: 082b 26bf 7512 27bf a876 1e3f ae33 d2be
00000350: 6d50 7fbf df39 05be 0a84 bbbe df24 0f40
00000360: 3620 e3be 4a1e 7ebf 52e3 68bf b0ce d63f
00000370: 70b2 5d40 2bb5 483f 4ef9 943f 0e3b c63f
00000380: 2b64 91bf 86ed 2140 330d 713f 974f 0b40
00000390: b428 93bd 54a5 50c0 a42e 00bf 9a4f 333f
000003a0: 3451 7f3e 0378 3640 f8ca 0fbe ba65 1a40
000003b0: f755 1340 3bfc 883e 2a66 0540 2bd5 e7bf
000003c0: 36fe 81c0 a119 9bbf 6876 7cbe 4d9a a03f
000003d0: f239 ccbf 6b17 ef3e d382 ca3f 7070 e9be
000003e0: f166 23bf 8ee7 c4be c648 a0bf 8698 6ebf
000003f0: 9a2c 37c0 f2d5 263f 0cab a8be 4941 d6be

fc.bias f4 [20]
-0.07984778 0.40443712 -0.12148002 0.0031882066 -0.06955633 0.059382085 -0.14122288 -0.19075808
0.3773536 0.46043128 -0.4192985 0.12932298 -0.10020386 -0.428614 0.2564588 0.22239618
0.021624234 0.009522715 -1.2124405 -0.58548313
00000000: 3c87 a3bd 6212 cf3e 84ca f8bd 3bf1 503b
00000010: 8d73 8ebd a13a 733d bb9c 10be 1656 43be
00000020: 7e34 c13e a6bd eb3e 4bae d6be 3e6d 043e
00000030: ae37 cdbd 4b73 dbbe 914e 833e d3bb 633e
00000040: 4e25 b13c 2905 1c3c 4031 9bbf 39e2 15bf

exp_avg f4 [512, 20]
0.00036787358 0.0012765802 5.261792e-05 -1.6102129e-05 -5.886501e-06 -0.00017407548 -9.965849e-05 -0.00029961014
-4.6289835e-05 -0.00027634163 3.8830665e-05 -0.0021648577 -0.001878317 0.000771544 -0.0012764611 -6.2080595e-05
-0.00019108175 -5.5038166e-05 -0.00012738805 0.000711107 0.0013644305 -0.0009241896 -0.00010754612 0.0010384583
-0.00053112657 -0.00046900826 -0.00016984312 0.0003687833 5.3777425e-05 -0.0006198056 -8.862402e-05 -7.460648e-06
0.00024619105 -0.000509799 -0.0007021443 -0.0001445388 -1.341223e-05 0.00023871547 -0.00044168698 -0.0006517303
0.0007932878 -0.00025998734 0.00026252423 -0.0006720652 0.0002437837 0.00057973224 -0.0001472853 -0.0008203605
0.0010267184 9.461728e-05 -3.789235e-05 -0.001233471 -0.00024338765 0.00011571471 0.0008060131 -0.000326391
-0.00050061574 0.0012033825 -2.6178413e-05 0.00085827877 -3.240951e-05 -7.7812314e-05 0.00018996521 -0.0011847808
-0.0006610576 -0.00069497235 5.204408e-05 0.00059782143 0.00024808137 -0.0010042267 -3.627988e-05 0.0008746725
0.0008972545 0.000885122 0.00020885927 0.0005824251 -0.00014180753 -1.4106851e-05 -0.00022576164 -0.001487297
-4.4253768e-05 -0.0004692551 5.6644523e-05 -0.00043102846 -0.0006658863 -0.00013803931 1.2737585e-05 0.00027471528
-0.0008134405 -0.00029647964 0.00015516947 0.00026361726 -0.00032021594 0.00051134755 7.6114826e-05 -0.00042619545
0.001008006 6.1666724e-05 4.0361025e-05 0.00085231295 -0.00016852803 -0.00023384868 -1.4782806e-05 0.0001243479
-0.0008346162 0.0005606857 0.0001595196 -0.00022838842 0.00021050066 0.0001784839 6.9519534e-05 0.0013572121
-0.00025009387 0.0003601326 0.00014957396 -0.0004014872 -0.00013552171 -0.00012954725 0.00093489647 0.0007813555
-0.0005600429 0.00019614576 -0.0002366359 -0.00028472982 0.0002732785 -0.00029066866 0.00060955406 -0.00019818325
-0.00038228914 3.7355894e-05 -0.0001277638 0.0007819679 2.8911476e-05 0.0006879818 -8.1599945e-05 4.98208e-05
-5.7221092e-05 -0.00037658573 0.00010120298 -1.5348176e-05 -0.0016309724 7.128271e-05 0.00026213983 7.728752e-05
-0.00020485577 -0.00017426394 6.799332e-05 0.0002346628 -0.00025672716 0.00068572094 0.0006838365 0.00030145247
-8.1883954e-05 0.000115380055 -0.00012378587 -0.00072632934 -0.000872185 0.000420141 0.000469296 9.8111326e-05
-0.00033959784 -0.00051070435 0.00030925646 3.330335e-05 0.00037427226 8.897574e-05 -0.00013621584 -0.0007509353
0.000208107 4.445615e-06 0.00026686466 -0.00031588558 0.00033517767 3.3115306e-05 0.0007809086 0.00053318305
5.353429e-05 -3.5329293e-05 0.00076860766 0.00029510827 -0.00041050828 0.00022689099 -0.0001454709 -6.1921666e-05
0.00031714558 -0.0002750551 -0.00019950076 -0.00023963378 2.4049481e-05 -4.3994365e-05 -6.3049745e-05 5.220803e-05
8.5881016e-05 0.0005658716 0.00046247608 0.00067338947 -0.00028963573 -0.00062275864 0.00015702294 -0.0001174594
0.00014941659 0.000427188 -0.00013366653 1.869345e-05 0.00018347533 0.00036627913 0.00013637934 -0.00018092913
0.00079218065 -0.00029154946 -8.267655e-05 -0.00040612838 0.00027886557 -0.000488653 3.918939e-05 -0.00025778168
-0.00031621323 -0.0016771492 0.00034577635 2.6661482e-05 9.957339e-05 6.517314e-05 0.0002882084 0.001568497
-0.00013694049 0.0005623189 0.00064145995 -0.00033333182 0.0013810967 0.0001668446 -0.0001016217 1.47507035e-05
-0.0005994922 -0.0010014502 0.0016490606 0.0007782991 -3.113507e-05 -0.00073107803 -0.00056001835 0.00074406486
0.00023184353 0.00070097065 -0.0001812694 -0.00037712688 0.00021517169 -0.00067041616 0.00056487235 6.8351525e-05
0.0012273592 -0.0002977735 0.0003935312 -0.00014268946 0.0008485404 -0.00095933664 -0.00016699322 0.00045577012
00000000: 28df c039 ec52 a73a 10b2 5c38 0f13 87b7
00000010: a984 c5b6 0888 36b9 bfff d0b8 fe14 9db9
00000020: 5527 42b8 f2e1 90b9 1cde 2238 49e0 0dbb
00000030: dc31 f6ba 7141 4a3a ed4e a7ba 4431 82b8
00000040: 1e5d 48b9 c8d8 66b8 7893 05b9 9569 3a3a
00000050: b1d6 b23a 5045 72ba 628a e1b8 e11c 883a
00000060: 4d3b 0bba 39e5 f5b9 ea17 32b9 4259 c139
00000070: 128f 6138 737a 22ba a9db b9b8 7a56 fab6
00000080: 3413 8139 08a4 05ba 1b10 38ba 578f 17b9
00000090: 1705 61b7 b24f 7a39 3992 e7b9 e1d8 2aba
000000a0: a5f4 4f3a e94e 88b9 68a3 8939 882d 30ba
000000b0: 30a0 7f39 2cf9 173a 9970 1ab9 760d 57ba
000000c0: f492 863a 446d c638 9aee 1eb8 6bac a1ba
000000d0: e035 7fb9 ddab f238 a04a 533a 751f abb9
000000e0: c13b 03ba d1ba 9d3a b799 dbb7 1dfe 603a
000000f0: 72ef 07b8 2b2f a3b8 6631 4739 a64a 9bba
00000100: d34a 2dba ce2e 36ba e849 5a38 1eb7 1c3a
00000110: eb10 8239 42a0 83ba 392b 18b8 474a 653a
00000120: bb35 6b3a 8807 683a 3c01 5b39 e3ad 183a
00000130: 2bb2 14b9 77ac 6cb7 6eba 6cb9 68f1 c2ba
00000140: 1f9d 39b8 5a06 f6b9 9895 6d38 a9fb e1b9
00000150: e08e 2eba a5be 10b9 83b3 5537 a907 9039
00000160: 113d 55ba d370 9bb9 fdb4 2239 1c36 8a39
00000170: a8e2 a7b9 f40b 063a d69f 9f38 fc72 dfb9
00000180: 121f 843a 1253 8138 5249 2938 c16d 5f3a
00000190: e6b6 30b9 4735 75b9 ab03 78b7 6363 0239
000001a0: 25ca 5aba fbfa 123a b744 2739 8d7b 6fb9
000001b0: d7b9 5c39 6827 3b39 04cb 9138 7be4 b13a
000001c0: 081f 83b9 2ed0 bc39 f4d6 1c39 b37e d2b9
000001d0: d51a 0eb9 13d7 07b9 d713 753a e1d3 4c3a
000001e0: d8cf 12ba 7aac 4d39 7721 78b9 ca47 95b9
000001f0: d246 8f39 e364 98b9 7bca 1f3a 69cf 4fb9
00000200: fb6d c8b9 96ae 1c38 55f8 05b9 fafc 4c3a
00000210: ec86 f237 ad59 343a a320 abb8 adf6 5038
00000220: ae00 70b8 7b70 c5b9 f03c d438 f5bf 80b7
00000230: 5ac6 d5ba 9d7d 9538 d06f 8939 6c15 a238
00000240: 8dce 56b9 9fba 36b9 a397 8e38 d10f 7639
00000250: 5699 86b9 f4c1 333a 7e43 333a 440c 9e39
00000260: 1db9 abb8 32f8 f138 84cc 01b9 2367 3eba
00000270: 58a3 64ba 5f46 dc39 d80b f639 1ec1 cd38
00000280: 0d0c b2b9 cae0 05ba b323 a239 33af 0b38
00000290: f939 c439 7d98 ba38 29d5 0eb9 6ada 44ba
000002a0: 4c37 5a39 8b2b 9536 f8e9 8b39 729d a5b9
000002b0: c9ba af39 4ae5 0a38 e4b5 4c3a 4fc5 0b3a
000002c0: 028a 6038 8a2e 14b8 637c 493a c3b8 9a39
000002d0: 7d39 d7b9 96e9 6d39 8c89 18b9 f1db 81b8
000002e0: 8f46 a639 4535 90b9 1431 51b9 3446 7bb9
000002f0: debd c937 9786 38b8 9339 84b8 f2f9 5a38
00000300: 051b b438 0057 143a 7d78 f239 6786 303a
00000310: 40da 97b9 a040 23ba 86a6 2439 8954 f6b8
00000320: b6ac 1c39 34f8 df39 d628 0cb9 e1cf 9c37
00000330: 4963 4039 2709 c039 0d01 0f39 cbb7 3db9
00000340: 58aa 4f3a 1bdb 98b9 a362 adb8 a1ed d4b9
00000350: b434 9239 f318 00ba 495f 2438 df26 87b9
00000360: 6cc9 a5b9 cad3 dbba 5149 b539 19a7 df37
00000370: 0fd2 d038 90ad 8838 ad1a 9739 0796 cd3a
00000380: af97 0fb9 9568 133a a627 283a 0ac3 aeb9
00000390: ea05 b53a 02f3 2e39 bc1d d5b8 ca79 7737
000003a0: 3e27 1dba 1843 83ba 4b25 d83a c506 4c3a
000003b0: 0797 02b8 d1a5 3fba 32ce 12ba 590d 433a
000003c0: 061b 7339 58c1 373a 2213 3eb9 1db9 c5b9
000003d0: b69f 6139 debe 2fba f113 143a f257 8f38
000003e0: 57df a03a 7c1e 9cb9 dd52 ce39 e99e 15b9
000003f0: 9570 5e3a fe7b 7bba e71a 2fb9 6ef4 ee39

exp_avg_sq f4 [512, 20]
4.48303e-06 8.687021e-06 1.7827614e-06 3.2072276e-07 1.2613892e-06 1.5097628e-05 5.740408e-07 1.0021718e-05
3.313932e-06 8.125723e-06 7.4269076e-07 1.2584946e-05 7.5793378e-06 4.078215e-06 3.89106e-06 5.3719145e-06
4.46851e-06 4.9286173e-06 4.372116e-07 2.859835e-06 4.4660687e-06 4.278244e-05 3.6821273e-06 4.1597405e-06
7.572085e-06 4.2195043e-06 3.4126842e-06 2.7486244e-06 3.891959e-06 3.7873565e-06 1.3570572e-06 2.819246e-06
3.0977094e-06 1.8225379e-06 7.369242e-06 1.1698241e-05 1.9512927e-06 1.5147511e-06 1.7080954e-06 2.8539348e-06
8.9889545e-06 7.880653e-06 7.146201e-06 4.514599e-06 1.0545023e-05 2.2356053e-05 1.3694612e-06 6.0747607e-06
9.545348e-06 1.3700678e-06 8.2078253e-07 5.045379e-06 5.057068e-06 1.8985257e-06 8.319781e-06 4.0066234e-06
5.091728e-06 6.429447e-06 6.968768e-09 3.2925752e-06 4.7793765e-06 3.4596912e-06 1.6103359e-06 1.1916254e-05
1.4794917e-06 7.027231e-06 9.0332685e-07 4.140659e-06 2.5493296e-06 9.474322e-06 3.0788866e-07 6.701856e-06
8.491777e-06 1.27828e-06 6.740007e-06 2.4491148e-06 3.008348e-06 6.4142228e-06 1.4249131e-06 4.91005e-06
7.8934545e-06 3.278676e-06 9.653721e-07 3.694227e-06 2.9629343e-06 9.800458e-06 1.0244834e-06 3.6830152e-06
9.568192e-06 4.025435e-06 5.881021e-07 3.5707828e-06 2.218525e-06 3.7221482e-06 6.171014e-06 4.0420655e-06
3.5063367e-06 4.6458704e-06 1.0716973e-06 2.2825996e-06 3.5807966e-06 3.315623e-05 2.0452283e-06 3.903945e-06
2.8970392e-06 1.5095504e-05 1.7580018e-06 4.2400143e-06 8.4612875e-06 9.95497e-06 1.7101017e-07 6.4606897e-06
2.2522115e-06 2.0172579e-06 1.7844285e-06 6.9932003e-06 2.4358762e-06 4.503538e-06 4.2457254e-06 4.9340106e-06
6.485601e-06 3.977459e-06 1.4695888e-06 2.3779658e-06 4.7652074e-06 1.1148321e-05 3.914434e-06 3.995446e-06
5.4484367e-06 3.3544948e-06 1.1388025e-06 4.6147215e-06 8.431678e-08 1.9685492e-06 2.1385747e-06 1.4982251e-06
1.6293978e-06 4.7800086e-06 6.686456e-07 1.2190378e-06 1.2880369e-05 8.575434e-06 8.0171384e-07 1.2276482e-06
1.1734369e-06 3.3354718e-06 1.227685e-06 2.455895e-06 5.9804443e-06 2.169899e-06 2.083329e-06 9.146034e-07
1.4087138e-06 6.6016296e-06 5.283263e-06 2.402557e-06 4.1839107e-06 2.9043922e-06 2.913606e-06 4.9180125e-07
2.2163558e-06 1.226087e-05 1.9812305e-06 6.35445e-08 5.9165436e-06 4.40502e-06 2.2066633e-06 7.536144e-06
6.719463e-06 6.349261e-06 1.7590106e-06 2.1792525e-06 1.1587576e-05 3.5295128e-07 4.4888557e-06 1.0093993e-05
1.8954128e-07 2.6711334e-06 1.1283227e-06 1.3845058e-06 9.136751e-06 2.7581598e-06 2.265281e-06 3.015418e-07
2.7688618e-06 3.9653896e-06 7.72224e-07 1.0400086e-06 4.3547284e-06 2.2755942e-06 9.893396e-07 3.0145807e-06
1.8342088e-06 5.1657717e-06 3.5155172e-06 4.5191236e-06 5.5424885e-06 3.0456729e-06 1.7606383e-06 1.004313e-06
7.2461416e-06 1.417123e-06 2.9659661e-06 9.3953673e-07 4.570918e-06 8.5785e-06 4.9384437e-07 1.0003846e-06
1.8744227e-06 4.0430723e-06 2.061064e-06 7.757269e-06 3.293924e-06 2.0848977e-06 4.730885e-06 1.600773e-06
6.743658e-06 6.899846e-06 1.8892919e-06 1.4866187e-07 3.013385e-06 4.2485506e-05 2.1951041e-06 5.118153e-06
2.6188816e-06 1.1741536e-05 2.8918548e-06 2.8700574e-06 6.061843e-06 5.6137824e-06 6.634849e-07 5.2649107e-06
2.779193e-06 1.7888661e-06 1.0719748e-05 6.863243e-06 3.0243107e-06 3.974601e-06 2.054316e-06 2.016923e-06
7.97936e-06 8.505191e-06 2.8616016e-06 2.299851e-06 4.1773324e-06 2.6943275e-05 2.6447856e-06 6.091967e-06
1.5451433e-05 5.468441e-06 1.9397203e-06 4.657247e-06 4.154769e-06 6.9456523e-06 8.384176e-06 6.1062674e-06
00000000: ef6c 9636 79be 1137 3747 ef35 cd2f ac34
00000010: 014d a935 d24b 7d37 c917 1a35 f322 2837
00000020: eb64 5e36 b753 0837 525d 4735 ee23 5337
00000030: 0452 fe36 9ad7 8836 f38f 8236 6540 b436
00000040: 35f0 9536 8060 a536 e8b9 ea34 97eb 3f36
00000050: 3ddb 9536 4c71 3338 771a 7736 e693 8b36
00000060: b713 fe36 4495 8d36 7805 6536 0275 3836
00000070: ac97 8236 4a2a 7e36 2124 b635 4732 3d36
00000080: 3ee2 4f36 ed9d f435 4f45 f736 9043 4437
00000090: f4f2 0236 744e cb35 b641 e535 3a86 3f36
000000a0: 44cf 1637 2637 0437 66c9 ef36 1c7c 9736
000000b0: 87ea 3037 4289 bb37 54ce b735 ccd5 cb36
000000c0: f524 2037 2ce3 b735 bf53 5c35 7a4b a936
000000d0: e2af a936 d9d0 fe35 3095 0b37 a270 8636
000000e0: 9cd9 aa36 87bc d736 ee71 ef31 03f6 5c36
000000f0: 885e a036 0b2d 6836 b822 d835 eceb 4737
00000100: f392 c635 74cb eb36 267c 7235 fdef 8a36
00000110: 2615 2b36 e7f3 1e37 e54b a534 81e0 e036
00000120: e877 0e37 5e91 ab35 3828 e236 795b 2436
00000130: 06e3 4936 c139 d736 a43f bf35 02c1 a436
00000140: 216e 0437 3a07 5c36 ef91 8135 56ea 7736
00000150: d3d6 4636 a66c 2437 fb80 8935 b829 7736
00000160: 1287 2037 3912 8736 12de 1d35 95a1 6f36
00000170: f8e1 1436 05ca 7936 9b10 cf36 14a1 8736
00000180: 684e 6b36 b9e3 9b36 3dd7 8f35 c32e 1936
00000190: 9e4d 7036 3b11 0b38 c140 0936 a2fe 8236
000001a0: c16a 4236 b242 7d37 7bf4 eb35 7245 8e36
000001b0: f4f4 0d37 4504 2737 eb9e 3734 e7c8 d836
000001c0: b324 1736 3a60 0736 7f80 ef35 22a7 ea36
000001d0: 0978 2336 191d 9736 8176 8e36 d48e a536
000001e0: e39e d936 1d76 8536 b03e c535 2495 1f36
000001f0: d2e4 9f36 ad09 3b37 bb58 8336 9f10 8636
00000200: b7d1 b636 c81d 6136 f5d8 9835 28d8 9a36
00000210: a411 b533 6b1b 0436 6f84 0f36 9f16 c935
00000220: afb1 da35 f663 a036 fa7c 3335 d29d a335
00000230: c318 5837 35df 0f37 5b35 5735 acc5 a435
00000240: fc7e 9d35 f8d6 5f36 efc6 a435 f4cf 2436
00000250: a0ab c836 959e 1136 52cf 0b36 1183 7535
00000260: 0a13 bd35 9183 dd36 e246 b136 9d3b 2136
00000270: 8563 8c36 14e9 4236 5f87 4336 5304 0435
00000280: b4bc 1436 09b4 4d37 48f5 0436 f575 8833
00000290: b986 c636 d5ce 9336 3016 1436 fcde fc36
000002a0: bf77 e136 bd0b d536 2517 ec35 463f 1236
000002b0: 4368 4237 417d bd34 fa9e 9636 5f59 2937
000002c0: b684 4b34 b941 3336 df70 9735 42d3 b935
000002d0: 0c4a 1937 d318 3936 3b05 1836 97e3 a134
000002e0: afd0 3936 700e 8536 d44a 4f35 6c96 8b35
000002f0: d51e 9236 69b6 1836 73c9 8435 1a4e 4a36
00000300: ef2e f635 a455 ad36 20ec 6b36 faa2 9736
00000310: 9df9 b936 4364 4c36 124f ec35 efcb 8635
00000320: e223 f336 fa33 be35 e90a 4736 7934 7c35
00000330: e35f 9936 60ec 0f37 ba90 0435 f444 8635
00000340: ac94 fb35 baa9 8736 cf50 0a36 3725 0237
00000350: 2f0d 5d36 45ea 0b36 febd 9e36 24da d635
00000360: 9547 e236 3a85 e736 9393 fd35 dd9f 1f34
00000370: 8f39 4a36 7732 3238 9a4f 1336 99bc ab36
00000380: 0bc0 2f36 83fd 4437 b011 4236 369b 4036
00000390: d666 cb36 065e bc36 561a 3235 3da9 b036
000003a0: 2c82 3a36 f918 f035 f8d8 3337 cf4a e636
000003b0: 43f5 4a36 905d 8536 e1dc 0936 795a 0736
000003c0: 17df 0537 84b1 0e37 f109 4036 2457 1a36
000003d0: 032b 8c36 3e04 e237 127d 3136 9969 cc36
000003e0: b39d 8137 8d7d b736 242c 0236 7245 9c36
000003f0: 3269 8b36 b30e e936 c3a9 0c37 70e4 cc36
